tudui/lixiaoning_4.pth (torch, 585095 bytes, 10 tensors)

model.0.weight f4 [32, 3, 5, 5]
00000000: c2c5 f33c d11f d93c dd17 e83d e896 19bd
00000010: f605 f53d e0f5 c9bd 2d69 54bc 7a2f c7bd
00000020: 165b e7bd a83b 4f3d a151 4c3d 4346 84bc
00000030: 57a1 0fbd 1086 6cbc ce06 41bc 64bc 89bd
00000040: 88f7 06bd 7acd ecbd 8836 833d 349e e23c
00000050: f178 da3d 408a 803c a62c 1abd cea5 513d
00000060: 60f5 43bd 640f 46bd 9c33 afbd 8448 d7bd
00000070: 7ed7 b33d 882a 513b ef19 a2bd b81b ec3c
00000080: 5f6a ddbc 0b5a d7bd c1be 30bc 49a8 8d3d
00000090: 3a8f 4cbd eae8 b63c 920a dbbd 8674 03be
000000a0: 158e e0bd 11a9 c9bd b0a7 1ebe a8db 67bd
000000b0: e0a7 1138 861d d23d 1276 29bb 9fc9 07bd
000000c0: 6b35 6bbd d2c9 c7bc b162 ff3c fc1c 48bd
000000d0: 942d 4abc 737b cd3c a281 7cbc 798f a03d
000000e0: e951 993d c0e8 9837 0b95 a3bc 4f43 93bd
000000f0: d904 813d 1d8a 243d 8cf2 d23c 860e 7c3d
00000100: c799 d9bd 7955 b4bd ed3f 91bd cd17 98bd
00000110: 7f8a 84bc 3a24 cbbd 2247 b13d ed4a 403a
00000120: d523 16bd 52c9 dcbd 36ba 0fbd e7be 9bbd
00000130: 118d 93bd 9ffe 89bd b498 f63c 5cfb 94bd
00000140: b4d8 cabb a12b 873c c399 b7bd eb31 9f3d
00000150: 747c 91bd b6c0 c6bc 5ea3 febd 6cdc 87bd
00000160: 3fd5 2d3c e56f 5d3c 0068 79bd a393 8b3b
00000170: 152b a9bb fae4 66bd da28 083d 889c 833d
00000180: 8211 b5bd 426b b7bd 7828 d03c 81b2 58bd
00000190: be10 a03d 8fc3 8b3d c646 e33d 8735 d3bd
000001a0: 6415 513d 875a f5bd 80e9 35bd 7f6a 11be
000001b0: dca5 ee3c 1b85 a8bd e202 0cbe 4814 06be
000001c0: cdf4 0fbe e926 d7bd 465b a1bd 91cb a8bd
000001d0: 4d7a 1a3d f090 00bd 124f f23c 407a 84bd
000001e0: 3e91 06be 1b0f 3b3d 86a4 83bd 1090 a3bd
000001f0: 02f1 6fbc 5b7a 2f3e 0e7a 2b3e 1ce4 9e3d
00000200: 994c 273e 5ea6 403e 804d ccbb 6fbe 353d
00000210: 5afa 283d 9d80 c6bc 2151 02bd 4fc3 183d
00000220: cdb0 fd3d 3e6b 963d 6036 013d 29b4 1f3a
00000230: a558 883d acde bf3d 1200 c03d 8ac0 e13d
00000240: 7be5 e73c 664d 2ebd f915 353c 9e8a cd3c
00000250: dd6f 1c3d 82ba 3f3d a801 043e 5781 af3d
00000260: 83fc 163e 3b6e 103e f072 933d b6bf 1d3e
00000270: d909 573c f7d3 163e 7f5e ff3d f7ca 0fbd
00000280: dbb3 0a3d 423c 22bd d605 4b3d cda9 153e
00000290: 81d2 823d 6aee cd3d 18d3 6bbd d3a0 1d3d
000002a0: d046 c3bd c962 043e fa95 73bd 0e8a 863d
000002b0: cc87 553d 4a8e 973d 17f5 8b3d 71c2 9bbd
000002c0: affd c6bd 5336 aa3c 0773 d1bd f3d8 bd3c
000002d0: c07d c23d 1fee e3bd 6fd1 01be c40a ac3b
000002e0: b480 d03b 9b2a f43d 3fb5 1e3b c4dd 03be
000002f0: 554a dfbc 9da4 6e3d dbec 92bd 9981 c4bd
00000300: c68b 7dbd 6982 ab3c 53b8 443c 527e 50bd
00000310: 5133 023d 9467 a9bd 5d00 08bd fa31 783d
00000320: e2b2 113d 0c54 2fbd 652b a33d da5d 443d
00000330: f179 dabd be58 8bbc c289 25be 26b9 03be
00000340: 0412 1e3b 7942 8c3d 0a9d 47bd 5c27 c6bc
00000350: e3b8 0fbe 7619 e5bd 38c6 fdbd 6848 973d
00000360: ed23 40bc bb91 963b e7e4 08be 8903 e0bd
00000370: 8d90 513d 9db9 c73c e3e2 ab3c 2b6e c8bd
00000380: 07ee 53bd c581 e03d 0b4d ee3d 0b17 463c
00000390: 778f c8bd 7246 fabd ec28 103e d361 c93d
000003a0: ee41 0abe d0a6 b73d d862 87bd c15d ea3d
000003b0: adbf 803d 30c0 a6bc 334c a6bc a5af b9bd
000003c0: 09d3 0c3e ebe5 863d 7192 823b 9da3 a63c
000003d0: 862a d63d 09eb 383c fe00 bbbb f853 90bd
000003e0: 5207 ef3d 5bb4 0fbc 3096 023c fa50 d03d
000003f0: e036 813d 3b23 69bd 6f9d 03be 0f2c 283e
0.029757384 0.026504429 0.113326766 -0.03749743 0.119640276 -0.0986135 -0.012964529 -0.09725852
-0.1129667 0.050594002 0.049882535 -0.016146785 -0.035065975 -0.01443626 -0.0117814075 -0.06725386
-0.032950908 -0.11562629 0.064068854 0.027663328 0.10667599 0.015690923 -0.037640236 0.051183514
-0.04784143 -0.04835452 -0.085547656 -0.10511878 0.08781336 0.003191622 -0.07915103 0.028821811
-0.02702826 -0.10515221 -0.010787667 0.069168635 -0.04994128 0.022327859 -0.106953755 -0.12837419
-0.109646 -0.098467 -0.15493655 -0.056605965 3.472704e-05 0.102595374 -0.002585773 -0.033151265
-0.05742399 -0.024388228 0.03117499 -0.048855767 -0.012339968 0.02508328 -0.015411766 0.07839865
0.07486326 1.8228195e-05 -0.01996853 -0.071905725 0.06299753 0.040170778 0.025750421 0.061537288
-0.10625034 -0.08805365 -0.07092271 -0.07426415 -0.016179321 -0.09919019 0.08656146 0.00073353836
-0.036655266 -0.10780586 -0.035089694 -0.07604771 -0.07204641 -0.06738018 0.030102111 -0.072745055
-0.006190384 0.016500296 -0.089648746 0.07773193 -0.07103816 -0.024261814 -0.124335036 -0.06633839
0.010609924 0.013515447 -0.060890198 0.004259543 -0.0051626065 -0.056370713 0.033242084 0.0642634
-0.0884123 -0.08956005 0.025409922 -0.05290461 0.07815693 0.06824409 0.11097483 -0.10312944
0.05104579 -0.11980157 -0.044412136 -0.14200781 0.029131822 -0.08228513 -0.13672975 -0.13093674
-0.14058228 -0.105054684 -0.07878737 -0.08241952 0.03771429 -0.031388223 0.02957872 -0.0646863
-0.13141343 0.045668703 -0.06427865 -0.07986462 -0.014644863 0.17136519 0.16745779 0.07758352
0.16337813 0.18813464 -0.0062348247 0.044371065 0.04125438 -0.02423125 -0.03181565 0.037295636
0.12387238 0.073446736 0.031545997 0.00060922146 0.066575326 0.09368643 0.093750134 0.11023052
0.028307667 -0.04255428 0.011052602 0.025090512 0.03819262 0.046808727 0.12891257 0.085695915
0.14744763 0.1410455 0.07199657 0.15405163 0.013124906 0.14729296 0.124691956 -0.03510567
0.03386293 -0.039608248 0.049566112 0.14615555 0.06387807 0.100552395 -0.05757436 0.038483452
-0.09534991 0.12928309 -0.0594692 0.065693006 0.05213146 0.07400186 0.068338566 -0.07605446
-0.09716355 0.020777857 -0.10227018 0.023174739 0.09496641 -0.11129402 -0.12677549 0.005250307
0.006362999 0.11922189 0.0024216918 -0.12877566 -0.027257124 0.058262456 -0.07174083 -0.09595031
-0.061900876 0.020936208 0.012006837 -0.05090172 0.03178722 -0.08271709 -0.03320347 0.060594536
0.035570987 -0.042804763 0.07967261 0.047941066 -0.1066779 -0.017010089 -0.16165832 -0.12863597
0.0024119625 0.06848616 -0.04873375 -0.02418869 -0.14035372 -0.11186497 -0.12391323 0.07386857
-0.011727315 0.004595009 -0.1336857 -0.10938174 0.051163245 0.0243805 0.020982211 -0.09786638
-0.051740672 0.109622516 0.116357885 0.012090455 -0.09792989 -0.122204676 0.1407811 0.098331116
-0.13501713 0.08967364 -0.0661065 0.114436634 0.06286559 -0.020355314 -0.020300006 -0.09066705
0.13752379 0.06586822 0.0039847423 0.020341689 0.104573295 0.0112865055 -0.0057069054 -0.07047266
0.11671318 -0.008771027 0.007970378 0.10171695 0.06309295 -0.056918364 -0.12853025 0.16423057

model.0.bias f4 [32]
00000000: cc6c 613d fed3 15bd fde4 6cbc cf1d 163e
00000010: d279 dc3c 4b79 b9bd e4c9 ffbd bf44 5abc
00000020: cf4b c5bd 6af9 383d 461f 723d 5352 14be
00000030: 1e77 5a3d b75f c7bd d4e4 8b3c 006c 8ebd
00000040: c284 35be a24d 893e 3aab edbd 6203 36bc
00000050: 13e5 0fbe 18e9 7dbd 4442 d8bd 30de d83d
00000060: 37d4 183e 7122 bbbd 366b 3d3d 751d 36be
00000070: daef 33be 029e 8ebe cfe9 aabd 69fd 33bd
0.055035397 -0.036579125 -0.014458892 0.14659809 0.026913557 -0.09056338 -0.124896795 -0.013322054
-0.096336 0.045159735 0.059111856 -0.14484529 0.053336255 -0.09735053 0.017076887 -0.06954193
-0.17726424 0.26817042 -0.116049245 -0.011109205 -0.14052229 -0.061989874 -0.10559514 0.10589254
0.14924704 -0.091374286 0.046244822 -0.17784674 -0.17571965 -0.27854925 -0.08345377 -0.043942843

model.2.weight f4 [32, 32, 5, 5]
00000000: 3855 31bc eeac 603d 0658 193d c547 9cbc
00000010: e97a 033c b0d6 27bb 3e34 523d 795b c63c
00000020: e0a3 a4bc 6ca1 e0bc 15d9 6f3c 797b e03b
00000030: 76b6 23bc 264e 96bb e5f1 dbbc bf30 cdbc
00000040: 8a24 9f3c b8de 723b 2241 93bc b723 9fbc
00000050: 39eb 0fbc d316 db3c 2738 e83c 897e 20bc
00000060: e5a1 19bd f934 a23c ea73 153b 9878 07bd
00000070: a729 803c f01c 0cb9 788d 283c cb0c f93c
00000080: 4dcc 423b 0254 3e3b aabd cdbc 41fd c43c
00000090: 4fbe 40bc 5ef7 fabb ba4d bbbc 81bf b73c
000000a0: f29f ecb9 6587 c93c e077 0abd e169 e93c
000000b0: 3b11 3ebc 0d90 773c e2ed dabc e974 f1bc
000000c0: 8b9e d63b 681e ab39 7986 11bb c195 643d
000000d0: 9079 003b 11b3 eebb e55c e83c 0395 36bc
000000e0: cafd 163c d7eb 573d 75e6 6d3d e1a8 213d
000000f0: 7ba2 393d b741 753d 990c e33c 9076 35bc
00000100: 5b10 243d 9291 6e3b e6f6 483b 826f a03c
00000110: 6a42 903c 0ad7 173d a150 d7bc 47e2 a8bc
00000120: 6b85 ea3c d349 03bd 57a1 fc3c a3a4 a63c
00000130: c3b4 4e3d 3459 f1b8 53dd 5e3c 2357 8ebc
00000140: 0c28 6a3d a146 233d 7e41 3f3d d40e 2ebc
00000150: 6ce9 753c 5770 4b3d bd57 103d ef6b 393d
00000160: 7dd7 253d b3ef 323d f172 7f3d 0e17 3f3d
00000170: d621 ddba d551 5c3c ade2 143d 7d6e 3f3d
00000180: 4301 6f3d fef7 4cba bd3a 893c 9f0e 8abc
00000190: 49b2 eebc 3ee8 2d3b be8a 99bc a2bc 9cbc
000001a0: d51e ddbc 20c4 133d f7dc 8fbc 6605 0d3c
000001b0: 47e3 e93c 8e86 57bc 4fc0 133c ca6d e93c
000001c0: 1aa5 0c3c ad92 f23c b9f4 e0bc 3418 c13c
000001d0: e42b 05bd b88e 1c3c 7add d53b 86b4 c43b
000001e0: d596 b4bc 5bfc 83bc d821 49bc 0c19 36bc
000001f0: 1030 6dbc f4ee 0fbc bd48 c7bb e160 123c
00000200: 48f9 04bb ab08 073c ecf2 f4bc ddfb 4abc
00000210: 879d 923b 4980 673c d4ec b5bc 3a1c eebb
00000220: a3a8 e93c 69f2 023d 59e8 ccbc b9a2 d5bc
00000230: 304f 76bc 528a 0ebd e727 1bbc 5679 90bc
00000240: 4318 cb3c 416d c5bc 26ef cbbc 0acc 02bd
00000250: 877e 34bc eb4b 2e3c 0aab 35bc ffcc 923b
00000260: ba63 9bbc 7479 b93b de04 093d a08e d2bb
00000270: 5cac c13c 9294 02bb a092 a03c 780e 433c
00000280: 7dc4 60bc 26b2 cbbb f336 cf3c f1ce 833b
00000290: 85a9 d9bc 5de1 a1ba 47ee 333c 8820 333c
000002a0: 3f26 183c a818 103d c3dc 433c 6f00 05ba
000002b0: d926 b8bc 38e6 a83c c2f2 a7bc d703 8c3b
000002c0: 79d6 4cbc df3e d53b 4a4a c53c 13f7 f53c
000002d0: a36c cf3c 8868 bbbc 89cb d23c 1480 ff3c
000002e0: 8968 d53c d1a7 afbb 1391 46bc a16f c73c
000002f0: 3f4c aebb 6c3b 003b 887c 0d3c 99bc f03c
00000300: 5bf6 a2bc 4520 b03c 541a bcbc eec7 cc3c
00000310: 620b 843c 4ea5 82bb bb06 a13c 62a7 5a3c
00000320: 710b 04bd aed8 113c cae6 193c 8d9f 19bd
00000330: 7e01 db3c 5842 af3b 59ce 743c 8036 24bc
00000340: 8b79 7e3c 935a bfbc e3c3 2b3b 7c3d 9bbc
00000350: 4818 6abc e8f1 ffbc b252 d7bc aab4 833c
00000360: d340 e7bc 3794 0c3d aad7 3a3c f2b6 2b3c
00000370: 1294 c1bc 76b4 a83c 7bfe a3bc 3847 df3c
00000380: d0ec 273b 2896 9aba e019 643d 67de 153d
00000390: f01b ff3b 836b ee3c 7da8 733d 7da7 023d
000003a0: eb17 f8bb 69f7 70b9 39a1 0b3d 2383 503d
000003b0: dae2 eb3c 1369 68bb 7a8b 9cba 9eb7 95bc
000003c0: b868 22bc 029d c73b c3fc 473d 409f 943c
000003d0: 924c 6fbb 5b1a 023b b4ea 803c b792 b4bb
000003e0: fd61 893c 9302 fdbc 5ff3 723c 4a96 9abc
000003f0: b955 1a3d d6f1 ee3c 1cd8 46bb 903b d93c
-0.01082354 0.05485242 0.03743746 -0.019077191 0.0080249095 -0.0025610141 0.051319353 0.02421354
-0.020097673 -0.027420722 0.014639159 0.0068506566 -0.009992233 -0.0045869527 -0.026848743 -0.025047658
0.019426603 0.003705902 -0.017975394 -0.01942621 -0.008784109 0.026744282 0.028347088 -0.009795793
-0.03750791 0.01980065 0.0022804686 -0.03307399 0.015644861 -0.0001336222 0.010287635 0.030401608
0.0029723824 0.0029041772 -0.025114853 0.024046542 -0.011764123 -0.007658883 -0.022864211 0.022430183
-0.00045132596 0.024600694 -0.033805728 0.02849287 -0.011600788 0.015110028 -0.02672476 -0.029474692
0.0065496615 0.00032638316 -0.0022205396 0.05580688 0.0019603707 -0.00728453 0.028364608 -0.011143926
0.009215781 0.05271515 0.05808111 0.039467696 0.04532097 0.059877124 0.027715968 -0.011075631
0.04005466 0.0036402685 0.003066474 0.019584421 0.017609794 0.03707031 -0.026283564 -0.02061571
0.028628072 -0.032052826 0.030838652 0.020342177 0.050465357 -0.00011508391 0.0136025725 -0.017375534
0.057167098 0.03986228 0.046693318 -0.0106236525 0.015009265 0.049667682 0.035239924 0.04526895
0.04048871 0.043685626 0.062365476 0.046652846 -0.0016871046 0.013447245 0.036348987 0.04673623
0.058350813 -0.0007818936 0.016751641 -0.016852675 -0.029137747 0.0026536132 -0.018742915 -0.019132916
-0.02699224 0.03607571 -0.017561419 0.008607244 0.028550757 -0.013154639 0.009018018 0.028494734
0.008584285 0.029610956 -0.027460443 0.023571111 -0.03251256 0.009555511 0.006526646 0.0060029654
-0.022044579 -0.016111543 -0.012276135 -0.01111437 -0.014476791 -0.008784998 -0.006081669 0.008934231
-0.0020290185 0.008241813 -0.02990099 -0.01238915 0.004474345 0.014129707 -0.022207655 -0.0072665485
0.028522795 0.03196946 -0.025013136 -0.026078569 -0.015033528 -0.03479988 -0.009469963 -0.017635982
0.024791842 -0.024099948 -0.024894308 -0.031932868 -0.011016495 0.010638217 -0.011088142 0.004480004
-0.018968452 0.0056602303 0.033451907 -0.0064256936 0.023641758 -0.001992498 0.019601166 0.011905305
-0.013718721 -0.0062163053 0.025294757 0.004022472 -0.026570091 -0.0012350489 0.010982103 0.010933049
0.009286462 0.035179764 0.011954489 -0.0005073612 -0.022479462 0.02061759 -0.020501498 0.0042729187
-0.012502306 0.006507739 0.024083275 0.03002504 0.025320357 -0.022876993 0.025731819 0.031189002
0.026050823 -0.0053605814 -0.012119549 0.024345221 -0.005319148 0.0019566668 0.008635648 0.029386805
-0.019892862 0.021499762 -0.022961773 0.024997678 0.016118709 -0.003986991 0.01965653 0.013345571
-0.032237474 0.008901758 0.009393403 -0.037505675 0.02673411 0.005348485 0.014941775 -0.010022759
0.015531908 -0.023358619 0.0026209287 -0.018950216 -0.014288016 -0.03124328 -0.02628455 0.016077358
-0.028229153 0.034321036 0.011403957 0.010480629 -0.023630176 0.020593863 -0.020018807 0.02725564
0.002562333 -0.0011794018 0.05568874 0.036589053 0.007785313 0.029104 0.059486855 0.03189801
-0.0075712106 -0.00022980351 0.0340893 0.05090631 0.028794695 -0.003546302 -0.0011943423 -0.018276032
-0.009912662 0.006091715 0.048825037 0.018142343 -0.0036514145 0.0019852135 0.015736915 -0.005510654
0.016770357 -0.030885017 0.014828532 -0.018870492 0.037679408 0.02916805 -0.0030341214 0.02651766

model.2.bias f4 [32]
00000000: 377f fa3c a73f c1bc 1650 fe3c d38d b2bc
00000010: 023f 72bd 0af7 14bd 827c 913c 4abe 8fbc
00000020: 1fb3 86bd d930 47bd 4b37 ff3b 7008 4f3c
00000030: 8067 b1bb c9e1 043d cada d8bc 644c 70bb
00000040: 9006 123c f4ac 1cbd 445c 9e3d adba 3fbd
00000050: d2b5 9dbd 7c11 a9bc 1042 4b3c 2ee1 c3bd
00000060: d4b6 163d 1c5d 92bc 2fc6 50bd 1f92 323d
00000070: f881 f738 8181 563d 03ad e93a d90a 90bc
0.030578239 -0.023589922 0.031044047 -0.021796143 -0.05914212 -0.036368407 0.017759565 -0.017546792
-0.065771334 -0.04863057 0.007788574 0.012636289 -0.0054139495 0.032441888 -0.026471514 -0.0036666626
0.008912697 -0.03825088 0.07732442 -0.046808887 -0.07700695 -0.02063822 0.012405887 -0.09564434
0.036795452 -0.017866664 -0.050970253 0.043596383 0.000118020864 0.0523696 0.0017828051 -0.017583298

model.4.weight f4 [64, 32, 5, 5]
00000000: d897 b7bc 363f f63c 1023 6d3c 8f9e 00bd
00000010: 8219 963c 127f 203c 10b5 173d 0a9c 8c3c
00000020: ee4b bfbb 3fd1 833c 4b51 763d 5f8e 013d
00000030: 5cb6 d4bc 31cd fb3b f009 6f3c 3473 5d3d
00000040: f23f ff3c da6b 0bbc 0c7c a33c e3b2 f5ba
00000050: 87cf ef3b ebad a8bc b2ce 06bd 34bd a93c
00000060: eb51 083b c0fe 9d3c 61aa 1abd 7cc5 3cbb
00000070: ea15 853c b4d6 313c b68f f43c ceba 6a3a
00000080: d03a 84bc 4e25 76bc a156 82bc de0d 35bd
00000090: 819b 3abd d5ac d33b 89fe bf3c 7f8b 0ebc
000000a0: 417e 64ba becd ebbc ab1f 8ebc 5c2f a43c
000000b0: 6ef9 8abc 5396 e63b 02dc f23c e3f8 c7bc
000000c0: e9c7 333b 04ab c3bc c374 d93c 9b2e 8ebc
000000d0: 25ab 373d 7ee1 05bd a6b2 173b bc88 4e3d
000000e0: ad7c 26bb b08b e43c ec1b 14bd e73a a23c
000000f0: 598e 6abc 8d73 013c a281 873a 57d1 27bd
00000100: 0145 d93a 4511 743b 7413 463b 279a 8fbc
00000110: 0843 c2bc 1310 183c d135 a4bb ff41 d93c
00000120: 2142 b8bc 0c30 6cbc 4e3b a23c bf73 0f3c
00000130: 3794 9fbc 4c84 f53b 3eb4 0cbc 3c23 4fbc
00000140: 5863 403c 817a 31bb e945 11bd d417 93bc
00000150: 8946 19bd a9d8 23bc 405c b33c b10f 23bd
00000160: a787 01bd 6a39 913c 9d63 89bc 3fe5 ffbc
00000170: 6b39 173c 81cd 89bc 66ef b73c 9a95 253b
00000180: a5cf b03c 9a66 943c 411f 1abd 66fb 123c
00000190: 650d 23bc 43cc 8ebc 85ec 3dbb 2840 51bc
000001a0: adc2 1fbc 471b 043c 5eff 0d3c b6b5 513d
000001b0: c66a 0a3c fd33 b1bc fbe5 a93c 368a c83c
000001c0: e07f 17bc bc2f ffbc a7b6 c1bb f1cf 4f3d
000001d0: 602f 95bc 3d54 273c 1c6e e9bc a73d c03c
000001e0: 7e5f 8d3b e811 fd3c 8c06 65bc 9f5d d4bc
000001f0: 2647 22bc 8c4d aabc 9c82 91bc eecd bb3c
00000200: 3fa3 053c 9ba4 dd3b 8adb f3bc 3a30 bfbc
00000210: 68ae 5e38 41e6 ac3c f3bb 863a e612 b4bc
00000220: 4cfe 6bbc 9f96 043b 7a9a 01bd 8536 083d
00000230: a8eb dc3c 8534 163d 7416 01bc 4bcf 463b
00000240: d8cf 05bd 6646 053d 3c1b 303c 8433 32bb
00000250: 6f15 1dbc 8983 0abd 9964 aebc 65b1 f03b
00000260: 5f7a 193d 708e 50bc 524e 3dbc 8416 b0bb
00000270: fb59 e5bc d60c 9bbb 1f3f ca3c 9315 043d
00000280: 7647 21bc dee6 1b3d 5ae9 013d 79a5 b9bc
00000290: 7d01 03bd 3a1f 203c 7c69 743c ce64 e63b
000002a0: 399b a4bb f08a be3c 7ed4 ab3a cf3f 1b3c
000002b0: d807 bdbc edab 0f3b 0ecd 03bd c4f4 35bb
000002c0: 1649 883b 3d9b b9bb fa8d 55bc 1716 02bd
000002d0: f023 b53c 3675 603c 63fe a43c 6fdb cfbc
000002e0: 9244 d53c e11d 30bc c41e a53c 59b3 a33c
000002f0: e371 98bc 9a4b 1cbc 0e76 023d 672c ee3c
00000300: 99c1 8a3c 900e 8cbc 1943 373a cc47 d7bc
00000310: 4932 dc39 69e3 03bd e29d 1e3d e806 203c
00000320: 4a27 e7ba 8f4d f7bc 6643 13bd ff9d a13c
00000330: 5bdc bdbc be51 253c fac3 06bc 45de 543b
00000340: 8c75 1bbb 70c0 a73c 2a97 8bbc 9ce2 b43c
00000350: 0ae3 8e3c 638d 9e3c c241 033d 651b a1bc
00000360: 5dd9 8b3c 877a 5f3c 2377 0d3d 0eaa e03a
00000370: 7962 e43c 2809 c9bc b0b0 9cba 8856 16bb
00000380: 2ba3 cb3c 7bd6 e8bc 83d4 8bbb 0ee3 f03c
00000390: 1a3f b0b9 8b01 ed3c b62c 123a 0b14 903b
000003a0: f09f 5539 4a36 e63c fd8f f1bc 24dc 923c
000003b0: 4faf 9b3b d1fc 20bd 2ce4 b2ba 51e8 0d3d
000003c0: 164d c6bc c897 4abc 99b1 dbbc 4a85 af3b
000003d0: 6d65 18ba 339c a13b 58c5 3bbc 4f05 583b
000003e0: d866 f23b e504 483c 8a27 4abb bdff 1bbd
000003f0: 3d2a 02bd 707e 61bc d207 f83c 73f9 bf3c
-0.022411272 0.030059438 0.014473692 -0.031401213 0.01832271 0.009795921 0.03703791 0.017164249
-0.005837909 0.016090987 0.06013612 0.031629916 -0.025965862 0.007684373 0.014589772 0.054064944
0.031158421 -0.008509601 0.019956611 -0.0018745329 0.0073184404 -0.020590743 -0.032911964 0.020720102
0.002080078 0.019286513 -0.037760142 -0.0028804233 0.016245801 0.010854412 0.029853683 0.00089542277
-0.016141325 -0.015023543 -0.015910449 -0.044202678 -0.045558456 0.006459812 0.023436802 -0.008700251
-0.0008716323 -0.028784629 -0.017349085 0.020042114 -0.01696464 0.007036963 0.029645924 -0.02441067
0.0027432388 -0.023885258 0.026544934 -0.017356208 0.04484095 -0.03268575 0.0023147254 0.05042337
-0.0025403902 0.02789864 -0.03615944 0.019803477 -0.014316165 0.007901085 0.0010338316 -0.040971126
0.0016576351 0.0037241739 0.0030223997 -0.01752956 -0.023713604 0.009281176 -0.005011298 0.026520727
-0.02249247 -0.014415752 0.01980367 0.008755623 -0.019479854 0.0074925777 -0.008587895 -0.012642678
0.011742435 -0.0027081075 -0.035467062 -0.017955698 -0.037420783 -0.010000386 0.021894574 -0.039809886
-0.03162351 0.017727572 -0.016771132 -0.031237243 0.009229998 -0.016821625 0.022453021 0.0025266171
0.021583388 0.01811533 -0.037627462 0.008971071 -0.009951924 -0.017431384 -0.0028980088 -0.012771644
-0.009751004 0.008063144 0.008666841 0.051198684 0.008448308 -0.021631235 0.020739546 0.024479967
-0.009246796 -0.031150691 -0.0059116664 0.050735418 -0.018211067 0.010212955 -0.028494887 0.023466898
0.004314362 0.030892327 -0.013978612 -0.025923548 -0.009904658 -0.02078893 -0.017762475 0.022925343
0.008156597 0.0067640073 -0.02976777 -0.023338426 5.3091353e-05 0.021105887 0.0010279402 -0.021981668
-0.014403891 0.0020231379 -0.03164146 0.03325512 0.026967838 0.03667118 -0.007878888 0.0030335959
-0.03266892 0.03253784 0.010748681 -0.002719135 -0.00958763 -0.033816848 -0.021288203 0.007345366
0.037470218 -0.012729272 -0.011554318 -0.005373778 -0.027997008 -0.004731755 0.024688302 0.032247137
-0.009843698 0.03806197 0.031716682 -0.022661911 -0.03198384 0.00977307 0.014917728 0.00703106
-0.005023387 0.02325961 0.0013109592 0.009475662 -0.02307503 0.0021922544 -0.032177977 -0.00277643
0.004159103 -0.005664258 -0.013034338 -0.031759348 0.022111863 0.01369982 0.020140832 -0.025373189
0.026033673 -0.010749311 0.020156272 0.01998298 -0.018608993 -0.009539509 0.031850867 0.029073907
0.016938018 -0.017096788 0.00069908943 -0.026279353 0.00041999135 -0.032199297 0.038724788 0.009767272
-0.001763561 -0.03018835 -0.035952948 0.019728659 -0.023176363 0.01009029 -0.008225435 0.0032481116
-0.0023721186 0.020477504 -0.017039854 0.022080712 0.017442245 0.019354528 0.032045133 -0.019666383
0.01707142 0.013640053 0.034537446 0.0017140524 0.027878987 -0.024540499 -0.0011954512 -0.002293976
0.024858078 -0.028422585 -0.0042672767 0.029405143 -0.0003361635 0.0289314 0.00055761205 0.0043969206
0.00020372844 0.028102059 -0.029487604 0.017927237 0.004751123 -0.039303605 -0.0013648323 0.034645382
-0.02420668 -0.012365289 -0.026818084 0.0053564655 -0.00058134535 0.0049319505 -0.011460625 0.0032962149
0.007397514 0.012208198 -0.003084632 -0.038085688 -0.031778563 -0.013763055 0.030277167 0.023434376

model.4.bias f4 [64]
00000000: 2c3a 33bc 6550 88bd 7e8e 15bc efda cd3c
00000010: a86f aa3c 1b25 b9bc 6396 2abd 8ce4 a7bc
00000020: c31b babc 4c38 1dbd c46b 3abc f610 403c
00000030: 7678 1bbc 6fd3 54bb 3023 4d3d ccf8 d73c
00000040: b0db 23bd 7424 38bd 4f09 54bc b268 91bc
00000050: 9d69 d1bb 7752 53bc edf2 b53c c62c 3d3b
00000060: f985 c0bc 8a72 21bd 702f a13c 192c ebbc
00000070: f7f7 12bd d098 f03b fbd4 18bd 1666 1f3d
00000080: 1a44 5b3c d434 363d 9df0 4ebc 5a96 47bc
00000090: f3c5 8fbc 77c6 a83c 573a 04bd 4447 163c
000000a0: 9f22 0fbd cb1a a8bc cc1a 00bd d377 c73c
000000b0: 3c76 05bb fda3 323c 9f58 84bb f1cc 913c
000000c0: d6f1 8bbd 5758 dcbb a478 74bd 6a8b 893b
000000d0: cd0c 083c 5c25 613c 9fb9 28bd 3c37 433c
000000e0: cefd 02bc 4c56 a73c 111b 00bc 6014 263d
000000f0: a42c fcba bb9b 94bd 35c6 5e3c bfe6 9c3c
-0.010939162 -0.06655959 -0.009128211 0.02512881 0.020805195 -0.022600701 -0.041647326 -0.020494722
-0.022718316 -0.038383767 -0.011378232 0.011722794 -0.009489169 -0.0032474657 0.050082386 0.026363753
-0.040004432 -0.04495664 -0.0129416725 -0.017750118 -0.006390764 -0.012898079 0.022210563 0.0028865798
-0.023501383 -0.039415874 0.01967594 -0.02870755 -0.03588101 0.0073424354 -0.03731249 0.038915716
0.013382936 0.044483975 -0.012630609 -0.012181843 -0.017550444 0.020602448 -0.0322822 0.0091722645
-0.034945127 -0.020520588 -0.031275555 0.024349129 -0.0020364663 0.010903356 -0.004038885 0.017797919
-0.06833236 -0.006724398 -0.059685364 0.0041975277 0.008303833 0.013741817 -0.041192647 0.011915024
-0.007995082 0.020426892 -0.007818953 0.040546775 -0.0019239378 -0.07256266 0.013597061 0.019152997

model.7.weight f4 [64, 1024]
00000000: cc3a 7a3c ef39 52bb 56b6 87bc f07a d8bc
00000010: 4a16 ab3c f764 733b 5e87 fb3c fb1f e1bc
00000020: ea7a ed3c f1b1 be3c c48d b8bc cff9 b6bc
00000030: 6c72 fabb 79bd 1cbc 81c8 9cbc 0a3c bc3c
00000040: dcb7 41bb 0c28 be3c 01bf d1bc bc50 45bb
00000050: fc50 b9bc abb0 8ebb 913c 9a39 a2c3 86bc
00000060: 638d c5bc 2300 00bc 1034 eb3c fe49 48bc
00000070: 49bd b1bc e4e0 c8bc d6c6 b63b 3547 e9bc
00000080: 71e8 69bc f696 113c 9fab 9b3c 66eb f6b9
00000090: 26ca 88bc 2a3f 6ebc 91a7 0bbc f457 afbb
000000a0: 093d 9b3c c1fd 18bc 805a 09bb 793a 333b
000000b0: abd1 4a3c 9f09 e0bc d47f efbc 1adc 6abc
000000c0: 5282 fc3c 4efc e43b 0459 c9bc 7c34 c8bb
000000d0: d23a 5ebb 759b fbbc 5483 81bc 0941 cebc
000000e0: 6fc5 293c 1bb2 7fba 9881 94bc ea55 b1bc
000000f0: 8af4 523c 26ef 8339 f52b 97bc 1753 703c
00000100: 6fac d53c c1df 97ba ff86 20bc 35e3 093d
00000110: 7b0b cd3c 7938 a0bc 7f88 8abc e1dd ca3c
00000120: c400 353c df21 ad3c 1f4d ddba 7320 7f3a
00000130: 0c44 e03c a47b 19ba 2341 e3bc 703f a63c
00000140: 11ff 09bc 84d4 743c 4fb6 a93c 3236 f23c
00000150: 7dd6 c63c 84d1 a83b 1546 a23c d204 fabb
00000160: b421 be3c e882 643c 3527 c03c d3f5 f63b
00000170: 22d6 babc 1360 0bbc f798 8f3c b03b a1bc
00000180: f8c3 f2bc 54c0 f8bb 4b25 d1bb 2ae0 02bd
00000190: defa a4bc fc88 cbbb 7d37 b3bc 0748 8c3c
000001a0: c1cb a4bb 5b66 04bd 7d6b c73c b12a 513c
000001b0: 932a a03c cbc4 823c 08a2 a5bc fbe9 903b
000001c0: 4056 473c 23c4 5c38 d509 b83c 1240 d2bc
000001d0: 2ddd 9cbc fb42 e03b b30c c43c b3cc 03bc
000001e0: c1e9 b13b 5f00 e83b 0169 5fbc 6a43 eebc
000001f0: e246 4dbc 075c 45bb 66f7 ba3c cd28 193b
00000200: 1b13 0a3c 65d1 353b 9211 ddbc 7409 d9bc
00000210: c28c 66bb 9e7a f4bc 08c6 04bd 96e4 e3bc
00000220: 4d16 a8bb a802 153c fd0a c23c 7e74 f43c
00000230: ab7d b23c 07a2 ea3c e0de cbbc e35b 4e3c
00000240: 519e d03c b625 05bc 6c35 e5ba 48cb be3b
00000250: 0bb6 00bd b2b4 c9bc 37fe 7cbc c82a 20bc
00000260: 2a5d babb 6c91 b8bc cca8 933c 2ae1 8f3c
00000270: 79df a23c 2155 97bc fde5 99b9 a445 053d
00000280: 96f6 243c f97f fabc f4ba 6abb ed2b 583c
00000290: e424 cebc 41c0 2d3b 26ee dbbc bf21 a53c
000002a0: 7d0f d73b 3c68 a6bc 03a8 a5bc 7a5a d7bc
000002b0: 2490 bbbc 0499 3ebb 3ce4 753c 8a74 f43c
000002c0: e7db b03c 6625 e539 9508 cb3c 9f0d 8bba
000002d0: 6a23 b33c a04d a6bc 20cd 8e3c 5462 f6bb
000002e0: cdbd fbbc 5d0a b1bc c96e d739 4d45 8abb
000002f0: c383 dd3c 8070 b4bc 11b5 023d 0d0c 3ebc
00000300: 1907 debb 4569 64bc add9 acbc a688 b4bb
00000310: d85a 603c 6ccf dcbc c9e0 3c3b 9117 37bc
00000320: 7b1e 06bd 914b bebb ab83 3bba f38b abbb
00000330: cec3 423b a11d 85bc 1eca a93b 541d 15bc
00000340: 984e 583c 552d aebc 42fb d23c 2501 fb3c
00000350: b053 d1bc c3dc 0bbd 76ed ac3c 8fd5 e9bc
00000360: 55ca 0c3c 90eb 03bd d3db a43a 1351 903b
00000370: 6b14 c13c d844 d6bb 39eb 5a3c 9d31 b3bc
00000380: 6d8c 58bb b267 40bc 4cf5 fe3c d379 063d
00000390: d4ee 6c3c d967 eebc fe80 03bd f303 2abb
000003a0: 806c a13c 5a2e a1bc c8c2 013d 4df3 10bc
000003b0: 3afb dc3c b704 a13c bad4 a039 49c6 10bc
000003c0: addf c8bc d9b7 f2bc da6e 7dbc fe83 33bc
000003d0: 5aec eebc e3a1 adbc 3aeb 313c 12fa d63c
000003e0: a972 e1bc 4a5e 9f3c b763 f5bc d4a5 a33c
000003f0: 2483 e1bc 3925 debc 660c cdbc 6e04 be3c
0.015272807 -0.0032077988 -0.016566437 -0.026425809 0.020884652 0.0037139037 0.030704197 -0.02748107
0.028989274 0.023278208 -0.022528537 -0.022335915 -0.0076430347 -0.009566658 -0.019138576 0.022977848
-0.0029559052 0.023212455 -0.025603773 -0.0030107936 -0.022621624 -0.0043545566 0.00029418294 -0.016450707
-0.02411527 -0.007812533 0.028711349 -0.012224672 -0.021696704 -0.024521299 0.0055779023 -0.028476337
-0.01427661 0.00888609 0.019002734 -0.00047096162 -0.016697954 -0.014541427 -0.008523838 -0.005351061
0.018950002 -0.009337843 -0.0020958483 0.0027348085 0.01237909 -0.027348338 -0.029235758 -0.014334703
0.03082386 0.006988085 -0.024578579 -0.0061097723 -0.0033909571 -0.030713776 -0.015809692 -0.025177496
0.010362013 -0.0009754018 -0.018128201 -0.021647412 0.0128756855 0.00025164447 -0.018453578 0.014668248
0.0260832 -0.001158707 -0.009797811 0.033663947 0.025029888 -0.019558178 -0.01691079 0.024764003
0.011047546 0.021134315 -0.0016883946 0.00097323133 0.027376197 -0.00058549107 -0.02774102 0.020293921
-0.008422629 0.014943246 0.020716814 0.029566858 0.024272198 0.0051519293 0.019808808 -0.007629969
0.02320943 0.013947226 0.023456195 0.0075366287 -0.022807185 -0.008506793 0.017528994 -0.019681782
-0.02963446 -0.0075912867 -0.0063826195 -0.03195206 -0.020139154 -0.006211398 -0.021877045 0.017124189
-0.005029172 -0.032324176 0.024343247 0.012766526 0.019551551 0.015962979 -0.020218864 0.004422424
0.01216656 5.2634754e-05 0.022465626 -0.025665317 -0.019148434 0.006843922 0.023931837 -0.00804441
0.005429477 0.0070801224 -0.013635875 -0.02908488 -0.012529107 -0.0030114667 0.022823047 0.0023370266
0.008427407 0.0027743217 -0.026985917 -0.026493765 -0.0035179113 -0.029843625 -0.03241542 -0.02781896
-0.0051296116 0.009094872 0.02368688 0.029840704 0.021788439 0.028641714 -0.024886549 0.01259515
0.025466116 -0.008126667 -0.0017487234 0.005822573 -0.03142361 -0.024622295 -0.015441469 -0.009775825
-0.0056873756 -0.02253028 0.018024825 0.017563421 0.01988195 -0.01847321 -0.0002935379 0.032537118
0.010068556 -0.0305786 -0.0035817 0.0131940665 -0.025164075 0.0026512297 -0.026846956 0.020157693
0.0065631256 -0.020313375 -0.020221716 -0.02628826 -0.02289588 -0.0029082904 0.015008029 0.029840726
0.021589233 0.00043706148 0.024784366 -0.0010608918 0.021867473 -0.020300686 0.017431796 -0.007519046
-0.030730153 -0.021611387 0.00041090537 -0.004219687 0.027040368 -0.0220263 0.03191096 -0.011599553
-0.0067757485 -0.013941114 -0.02109989 -0.005509454 0.013693534 -0.026954375 0.0028820506 -0.011175052
-0.032743912 -0.005807348 -0.0007153104 -0.005235189 0.002971876 -0.01624948 0.005181565 -0.009101231
0.013202332 -0.02126185 0.025754575 0.030640194 -0.0255526 -0.03414608 0.021109324 -0.028544215
0.008593162 -0.03220707 0.001257772 0.004404196 0.023569306 -0.0065389685 0.0133617455 -0.021874243
-0.0033042685 -0.011743473 0.031122826 0.032831024 0.014461238 -0.029102253 -0.03210544 -0.0025942295
0.019705057 -0.019675422 0.0316799 -0.00884707 0.026975263 0.019655569 0.00030676072 -0.008836337
-0.02452072 -0.029628681 -0.015468324 -0.010956762 -0.029165436 -0.021195358 0.010859305 0.02624229
-0.027520495 0.01945414 -0.029954774 0.019976534 -0.027528353 -0.027117359 -0.025030326 0.023195472

model.7.bias f4 [64]
00000000: e54c 75bc da92 b9bc d41b 1abd f923 be3c
00000010: 976a acbc 1727 6fbc 86a1 3bbc 4703 85bb
00000020: bfbc 60bc fab5 03bc 5128 4a3d 9dbb c7bc
00000030: 63c9 4ebb d32b 26bd 2d54 38bd 76f8 8d3b
00000040: f400 583d bd2d 01bd 59ea 153c 4075 9abc
00000050: bf2e 1dbc 2c0b a73c f3fd 28bd b8f9 0cbd
00000060: dd36 003c 5882 9c3c cf70 1d3d 61e7 033c
00000070: 3390 c03c 0365 0e3d 5e67 da3b 3b72 c33c
00000080: 680d 1dbc 3459 43b9 54e0 5d3c 663a 8c3c
00000090: e6ea ae3c 746d 97bc 67cb 543b 8bdf df3c
000000a0: 1e3d 0d3c 5c87 31bc 2278 9b3c 02f0 c03c
000000b0: 68a6 febc 9d7a 2f3c 0aae 2a3d d4bf 29bc
000000c0: f936 b6bb 5254 afbc c0ce 6cbd 426f 90bc
000000d0: 6b68 ee39 aea0 7f3d 4ac3 9bbb a0c1 37bd
000000e0: bad4 4cbd fd23 30bc 3d19 99bb 0893 b3bc
000000f0: 6b82 da3c c7fa f03c 3a22 6d3b 1d81 2bbc
-0.014971946 -0.022653032 -0.037624195 0.023210512 -0.02104692 -0.014596722 -0.011452084 -0.0040592286
-0.013716876 -0.008038992 0.049354855 -0.024381453 -0.0031553141 -0.040569138 -0.04500215 0.0043325974
0.052735284 -0.03153776 0.009150111 -0.018854737 -0.009593665 0.02039107 -0.04125781 -0.034417838
0.00782558 0.019105121 0.03843766 0.0080507705 0.02350626 0.0347643 0.0066651544 0.02385818
-0.009585716 -0.0001862988 0.0135422535 0.01711769 0.021352243 -0.018484809 0.003246987 0.027328273
0.0086205285 -0.010835495 0.018978182 0.023551945 -0.031085208 0.010710386 0.041669883 -0.010360677
-0.0055607525 -0.021402512 -0.05781436 -0.017631177 0.00045472695 0.062409095 -0.004753505 -0.04486239
-0.05000756 -0.010750768 -0.004672198 -0.021920696 0.026673516 0.029416455 0.003618373 -0.010467795

model.8.weight f4 [10, 64]
00000000: da42 8b3c 5fc2 49bd 7c2d af3d 9f76 85bd
00000010: 080e aa3d c337 cabd d56a 083e fad8 df3d
00000020: b43a f0bd e40c dc3d 011e 10be 38fc 083e
00000030: 49f8 803d ce5f 5b3c 4c8f f73b 5478 d63d
00000040: 8a44 0bbe 2869 733d c46a 09be 6997 413d
00000050: 5310 c83d d4b3 a2bd 9103 c6bd 1fed ce3c
00000060: 54f4 863d 5ef3 d6bd 4ff1 b0bd 765a 0fbe
00000070: 9243 3fbd b111 0abe 7862 25bb 4d4e 11be
00000080: a1a7 debd ad3f 0a3d fd1b a6bc 72b8 a6bd
00000090: 1d84 f33c 8909 05be 0eae ed3d 2a9c 0bbe
000000a0: b07d b4bd 1f26 ecbd eb8f c5bd 787a cebd
000000b0: eede 9d3d 6b7d 303c 8694 02be 3dd2 22be
000000c0: 58eb 563d 1358 16bb d5e8 303d a5af e3bc
000000d0: e547 b23d d92a eebd 6a2a 06be 5ca2 0d3e
000000e0: c53e a93d 179f f53d c5f4 ab3d d20a c4bd
000000f0: d0cf b1bd b9c3 a53d 253c 06be 25ca 08bd
00000100: 2f79 cdbd 539f a1bd d0d9 563e 97bf ddbc
00000110: 5e42 383e 14ab 28bd e546 cb3d 8296 08be
00000120: 1403 dcbd 48b8 a3bd 9ade 193e e37a e63d
00000130: a7b3 f5bd 7c61 28bc 5539 343e fbf8 96bd
00000140: 6d35 353e d225 f13b 198c 22be 3420 053e
00000150: b137 14be e5f6 ad3c f153 153b 155b 573e
00000160: ec73 283e 7af5 0cbc 0e11 bc3d 43e7 f33d
00000170: e0af e8bd 1afd ed3d 6215 b53c 0d14 f0bd
00000180: 9e3c 71bc f463 2ebe 41b6 b63d 863d 16bd
00000190: dd4a 21be 0848 143e abe5 c3bc 93a2 383e
000001a0: 9d41 69bd 6a12 163d 21ca b2bd 9c57 febd
000001b0: dd36 9bbd e937 e13c 9032 2e3e 56b9 1ebe
000001c0: 835c debc 9576 c03d 1aa1 cfbd ff07 293d
000001d0: e00e 0dbe f0a8 ef3d 4d3e 6bbd 0b3f 60bd
000001e0: 841c 573e a035 193e dcc2 043d 48b1 4f3c
000001f0: e0a6 363e dceb aebd d4b4 ecbc 717e e6bd
00000200: 92f1 973d 5892 e0bd 4b21 ee3c 48ff 6ebc
00000210: 64c5 20be fcde 873d 8482 21bd 23d7 a0bd
00000220: 1d26 6ebd 5788 0ebe 7fae cdbc cacc f6bd
00000230: fdba a3bd dff3 c4bd 9d02 293d 3af2 98bd
00000240: 9d8c 76bd c725 11be 53ab eabc c8be b03d
00000250: 98d8 1cbe 19fd f23d 5283 18ba e86f 4fbe
00000260: e404 0e3e f1db 7f3d d8c4 183e 0110 9cbd
00000270: 2e80 0f3e b3a9 35be d710 e3bd 0097 953d
00000280: 03af 14be dcad 58bd ed45 f3bb 0e66 88bd
00000290: 5629 683c 72e3 d6bd 4a17 16bb 3403 22be
000002a0: bee4 05bd 9a31 38bc 94b5 ef3d 21d0 82bd
000002b0: 977c 28be 1ec3 fe3c 4fc0 dabd cbd8 063c
000002c0: 1ac6 123e c17b 2dbe 444d 143c 5d7f 85bc
000002d0: 1946 ea3c 0c25 f0bc f4a5 0fbe 06d4 a4bb
000002e0: 7406 26be 7d1a 47bd 9cca 873d fc1f 4abe
000002f0: f764 283d 4962 f23d 6e8c 76bc 4800 023e
00000300: e080 783c 03aa 41bc f43b acbc 38f1 043d
00000310: a382 2abe 64eb 61bd ee05 12bd 30f0 fc3c
00000320: 9242 993d daec 7f3c bb57 103e 1dcf ce3d
00000330: a522 44bd ff0e 4abd c491 e23d 1c02 093e
00000340: 659e 05be 2499 1ebe f02d 37bd e57b 67bc
00000350: c7d9 d1bd 79af c63d fadb 18be 86c5 44be
00000360: b0d1 1b3d e4a3 92bb 03a2 093e d16b 473d
00000370: 2dcd c03d 886f cfbd 0fe8 24be 5985 b2bd
00000380: 18b4 243e 3058 6abd 33d6 99bd 8391 f03d
00000390: adbb 593d 62ae 833d 87a9 aabc 38a8 93bd
000003a0: d8e2 113d c66b 4fbd 1a98 98bc 7c64 8cbd
000003b0: 0413 523d 0b3e 863c 2bbf fb3d f4cc 133d
000003c0: 5f9f d7bc cf8a 023e 5bdd 883d b5de 1abe
000003d0: 2e38 533d d1f1 ef3d 6b70 083e c58c 79bd
000003e0: 44c0 54bd 6be0 4dbe 3ee9 08be 3348 cebd
000003f0: f6b5 c6bd a4c0 13bd 1793 b13d 4a76 b3bd
0.01699965 -0.049257632 0.08553597 -0.06516766 0.083034575 -0.09873917 0.13322003 0.10930057
-0.11729947 0.10744646 -0.14073946 0.13377464 0.06297357 0.013389541 0.007554924 0.104721695
-0.13600364 0.059426457 -0.13419634 0.047263537 0.097687386 -0.07944456 -0.09668649 0.025259553
0.06589571 -0.10495637 -0.08639776 -0.13999352 -0.0466953 -0.13483311 -0.0025235694 -0.14190026
-0.108718164 0.033752132 -0.020277018 -0.08140649 0.029726082 -0.12991919 0.11605464 -0.1363379
-0.088130355 -0.115307085 -0.09646591 -0.10081953 0.07708536 0.0107720895 -0.1275197 -0.15900512
0.052470535 -0.002294068 0.043190796 -0.027793715 0.08705119 -0.11629266 -0.13102117 0.13831466
0.082639255 0.119932346 0.083962955 -0.09572376 -0.08682215 0.08093972 -0.13108881 -0.033395905
-0.100328796 -0.07891717 0.20981526 -0.027068896 0.17994067 -0.041178778 0.099256314 -0.13338664
-0.107427746 -0.07994133 0.15026322 0.112539075 -0.119971566 -0.010277148 0.17599995 -0.07371708
0.17696162 0.007359245 -0.15873756 0.13000566 -0.1447437 0.021235893 0.0022785629 0.21030839
0.1645047 -0.008603448 0.091829404 0.11909344 -0.113616705 0.11620541 0.022104923 -0.117225744
-0.014723925 -0.17030317 0.08921481 -0.036679767 -0.15751214 0.14480603 -0.023913225 0.18030767
-0.05694734 0.036638655 -0.08729959 -0.12419054 -0.07578824 0.02749248 0.17011476 -0.15500388
-0.027143722 0.09397618 -0.101381496 0.04126739 -0.13775206 0.11702144 -0.05743246 -0.054747622
0.21006972 0.14961863 0.032412395 0.0126765445 0.17837095 -0.0854108 -0.02889482 -0.112545855
0.07419123 -0.10965413 0.02906861 -0.014587231 -0.15700299 0.06634328 -0.03943111 -0.07853534
-0.058141816 -0.13919197 -0.02510762 -0.12050779 -0.079946496 -0.09616827 0.041262258 -0.07468076
-0.060192693 -0.14174567 -0.028646147 0.08630139 -0.15316999 0.11864681 -0.0005817908 -0.20257533
0.13869053 0.06246561 0.1491884 -0.0762024 0.1401374 -0.17740516 -0.11087196 0.073041916
-0.14519887 -0.05290018 -0.0074241073 -0.066600904 0.0141700115 -0.104926005 -0.0022902065 -0.15821534
-0.03268885 -0.011242295 0.11704555 -0.06387354 -0.16453777 0.031098899 -0.10681211 0.008230398
0.14333382 -0.1694174 0.009051625 -0.016296083 0.028597878 -0.02931454 -0.1402815 -0.005030158
-0.16213399 -0.048609246 0.066304415 -0.19738764 0.041111913 0.11835153 -0.0150481295 0.1269542
0.015167445 -0.011820319 -0.021024682 0.032456607 -0.16651396 -0.055156127 -0.035650186 0.03087625
0.074834004 0.015620435 0.14095967 0.100980975 -0.047884602 -0.049330708 0.11062959 0.13379711
-0.13048704 -0.15488106 -0.044721544 -0.01412866 -0.10246616 0.097014375 -0.14927664 -0.19215974
0.03804177 -0.0044751037 0.13440709 0.048686806 0.09414134 -0.10128695 -0.16104148 -0.0871684
0.16084325 -0.05721301 -0.075115584 0.11746504 0.053157497 0.06429745 -0.02083279 -0.072098196
0.035616726 -0.05063989 -0.018627215 -0.068551034 0.051287666 0.016387006 0.12292322 0.03608413
-0.026321111 0.12748264 0.06682845 -0.15124018 0.05156725 0.11716045 0.13324134 -0.060925264
-0.05194117 -0.2010514 -0.13370225 -0.10072365 -0.09702675 -0.03607239 0.08670633 -0.08762796

model.8.bias f4 [10]
00000000: 5d35 02bd 3966 70bd a774 db3d ed7d f7bc
00000010: f799 aa3d aa84 89bd 1750 0f3e dd2b 86bd
00000020: 4127 f8bd f7ce b73d
-0.031789172 -0.058691237 0.10715609 -0.030211413 0.08330148 -0.06714757 0.13995396 -0.06551335
-0.12116862 0.08975022
