tudui/lixiaoning_2.pth (torch, 585095 bytes, 10 tensors)

model.0.weight f4 [32, 3, 5, 5]
0.017052675 0.013796588 0.099223375 -0.054169003 0.10106854 -0.10830341 -0.016834207 -0.09811401
-0.114618585 0.04583537 0.045945033 -0.011867122 -0.024958398 -0.004776209 -0.007274735 -0.05938851
-0.019355757 -0.099582374 0.078592785 0.03530638 0.10285908 0.016154736 -0.03523527 0.054303955
-0.047384363 -0.048622858 -0.08276392 -0.102000296 0.08767366 0.0010063215 -0.08108471 0.035001677
-0.015984692 -0.09415266 -0.0022672047 0.0697957 -0.039452866 0.04025036 -0.08793019 -0.113793574
-0.09964793 -0.081612274 -0.13448727 -0.03641326 0.013699919 0.09916259 -0.00086162006 -0.028719096
-0.051720694 -0.02099237 0.025603162 -0.05122049 -0.013921721 0.021306397 -0.019794803 0.06965147
0.07348675 0.0033078722 -0.01587159 -0.06837926 0.05804674 0.044010475 0.036770247 0.07431606
-0.09631873 -0.08102784 -0.057398494 -0.057191912 0.0008853771 -0.08737236 0.083206914 0.0025662188
-0.032164034 -0.10219746 -0.031146761 -0.092681825 -0.08617895 -0.08987262 0.015303557 -0.09041356
-0.004082034 0.027637092 -0.08406207 0.09192159 -0.07260972 -0.016250053 -0.105057515 -0.04958582
0.029143592 0.013196627 -0.063595794 0.015034292 0.0023307926 -0.050825313 0.027431222 0.06217136
-0.07962891 -0.084727556 0.030000215 -0.05469444 0.063908994 0.053809673 0.089469366 -0.11464999
0.037129544 -0.11270028 -0.030534986 -0.1322517 0.05018205 -0.07580616 -0.124970675 -0.11018432
-0.12117405 -0.081176214 -0.07135001 -0.083241865 0.047744595 -0.02393392 0.03741245 -0.06510623
-0.12952562 0.056241818 -0.056846842 -0.07055659 -0.009420433 0.14084339 0.13364287 0.03621519
0.13297677 0.1596716 -0.019840175 0.03411423 0.02663141 -0.026029626 -0.043173935 0.026072618
0.11809556 0.066057555 0.030276213 -0.011867191 0.042765018 0.07724457 0.07449112 0.09280597
0.0074115465 -0.059010107 0.00017199607 0.011032119 0.027330527 0.035851065 0.10738245 0.070505366
0.123302974 0.11405487 0.049863674 0.12966473 0.0018412593 0.12955615 0.09836139 -0.05777603
0.0070551634 -0.05154384 0.0374708 0.124966204 0.04005567 0.08183532 -0.06601411 0.033197157
-0.10354076 0.11177396 -0.07536854 0.05403005 0.041534886 0.06428486 0.050838895 -0.0692656
-0.08063903 0.03008059 -0.098194614 0.02884605 0.1028924 -0.085075185 -0.10342863 0.016623676
0.016295195 0.12045139 0.02333965 -0.1033032 -0.012804621 0.06560438 -0.06834451 -0.07937797
-0.038537677 0.04084755 0.019989287 -0.049376395 0.039210096 -0.07160743 -0.021493824 0.0627826
0.03934345 -0.029550998 0.087025926 0.048854195 -0.10322492 -0.010803337 -0.13745251 -0.10536996
0.012577181 0.077898584 -0.051210076 -0.007313947 -0.116540246 -0.099221796 -0.117328376 0.07234267
-0.0004813812 0.02499782 -0.11645152 -0.10257295 0.04790257 0.02659107 0.028827323 -0.08962218
-0.051367577 0.092610165 0.10273134 0.014191867 -0.09173831 -0.10849879 0.11748815 0.082949005
-0.120336965 0.1030501 -0.04812179 0.086075 0.039880954 -0.004637859 -0.008426502 -0.082598075
0.11463482 0.046277013 0.01946739 0.030789929 0.107653745 -0.0043157004 -0.01716966 -0.05944523
0.12112871 -0.0072127166 -0.006508835 0.09304924 0.072296634 -0.04364821 -0.108424224 0.14476606
00000000: 0db2 8b3c 160b 623c a035 cb3d 51e0 5dbd
00000010: 06fd ce3d 2ece ddbd e4e7 89bc 00f0 c8bd
00000020: 26bd eabd debd 3b3d dc30 3c3d 516e 42bc
00000030: 8e75 ccbc bf81 9cbb e660 eebb 5e41 73bd
00000040: f78f 9ebc d8f1 cbbd 41f5 a03d 6c9d 103d
00000050: c8a7 d23d f056 843c dc52 10bd d36d 5e3d
00000060: 1b16 42bd c328 47bd 2180 a9bd 88e5 d0bd
00000070: 3f8e b33d 8ce6 833a be0f a6bd eb5d 0f3d
00000080: 54f2 82bc 1cd3 c0bd 6295 14bb 0cf1 8e3d
00000090: 5499 21bd 90dd 243d be14 b4bd 9b0c e9bd
000000a0: 3714 ccbd 5624 a7bd 08b7 09be 1226 15bd
000000b0: a075 603c c215 cb3d 58de 61ba 4f44 ebbc
000000c0: 14d9 53bd 31f8 abbc b9bd d13c 94cc 51bd
000000d0: ee17 64bc c18a ae3c b628 a2bc 6ea5 8e3d
000000e0: 3980 963d e3c8 583b 2305 82bc 6d0a 8cbd
000000f0: 6bc2 6d3d 5444 343d 669c 163d 0533 983d
00000100: c142 c5bd edf1 a5bd af1a 6bbd 1142 6abd
00000110: a718 683a 48f0 b2bd 6368 aa3d 022e 283b
00000120: 6fbe 03bd e74c d1bd 7e27 ffbc f8cf bdbd
00000130: 977e b0bd 230f b8bd c5bb 7a3c bf2a b9bd
00000140: 95c2 85bb 2f67 e23c bc28 acbd 6341 bc3d
00000150: 68b4 94bd d51e 85bc 6528 d7bd 801a 4bbd
00000160: 8bbe ee3c aa36 583c 833e 82bd 6452 763c
00000170: 36c0 183b 342e 50bd 71b7 e03c 65a7 7e3d
00000180: 7b14 a3bd a485 adbd 03c3 f53c 4707 60bd
00000190: b8e2 823d 8867 5c3d b73b b73d 9dcd eabd
000001a0: 2615 183d 68cf e6bd 8224 fabc fd6c 07be
000001b0: b18b 4d3d 4340 9bbd a0f0 ffbd 51a8 e1bd
000001c0: 1a2a f8bd b73f a6bd f41f 92bd b67a aabd
000001d0: d68f 433d 1111 c4bc cc3d 193d 6a56 85bd
000001e0: 5da2 04be d25d 663d 3cd8 68bd f97f 90bd
000001f0: 2958 1abc 4039 103e add9 083e 6156 143d
00000200: 102b 083e f480 233e dd87 a2bc 5dbb 0b3d
00000210: 1d2a da3c 153c d5bc 27d7 30bd 3e96 d53c
00000220: 16dc f13d 2f49 873d d205 f83c 9b6e 42bc
00000230: 5f2a 2f3d 6732 9e3d cd8e 983d 0e11 be3d
00000240: 8fdc f23b 95b4 71bd d859 3439 10c0 343c
00000250: 45e4 df3c 91d8 123d 54eb db3d 1e65 903d
00000260: 4586 fc3d 9a95 e93d da3d 4c3d d5c6 043e
00000270: 6956 f13a 5eaa 043e b271 c93d 8fa6 6cbd
00000280: 002f e73b a21f 53bd fb7a 193d 48ee ff3d
00000290: 6a11 243d 4799 a73d 6832 87bd bef9 073d
000002a0: 2e0d d4bd bfe9 e43d d25a 9abd 9d4e 5d3d
000002b0: 7c20 2a3d c8a7 833d 723c 503d 1fdb 8dbd
000002c0: 1326 a5bd 926b f63c 421a c9bd 8d4e ec3c
000002d0: 40b9 d23d e63b aebd 64d2 d3bd 602e 883c
000002e0: 807d 853c 38af f63d cb32 bf3c a190 d3bd
000002f0: 79ca 51bc 975b 863d 35f8 8bbd eb90 a2bd
00000300: afd9 1dbd c34f 273d 93c0 a33c e73e 4abd
00000310: c49a 203d eba6 92bd d113 b0bc 2a94 803d
00000320: 9926 213d ef14 f2bc a63a b23d 561b 483d
00000330: 9667 d3bd 7b00 31bc 5ac0 0cbe 35cc d7bd
00000340: 8510 4e3c 4b89 9f3d a8c1 51bd d6a9 efbb
00000350: a7ac eebd cc34 cbbd dc49 f0bd 6528 943d
00000360: e461 fcb9 3ac8 cc3c 227e eebd c411 d2bd
00000370: 7c35 443d 84d5 d93c 4727 ec3c d58b b7bd
00000380: cf66 52bd 66aa bd3d cf64 d23d 0185 683c
00000390: 4ce1 bbbd 9d34 debd a19d f03d 2be1 a93d
000003a0: 3a73 f6bd ee0b d33d 5b1b 45bd 1748 b03d
000003b0: 365a 233d 2ef9 97bb 500f 0abc 2e29 a9bd
000003c0: a9c5 ea3d f78c 3d3d 137a 9f3c 293b fc3c
000003d0: 9179 dc3d b86a 8dbb 63a7 8cbc d77c 73bd
000003e0: 5412 f83d a758 ecbb 1148 d5bb 9a90 be3d
000003f0: 4210 943d 77c8 32bd 850d debd 8e3d 143e

model.0.bias f4 [32]
0.04548535 -0.013596339 0.0066017895 0.12166529 0.053465594 -0.053078707 -0.07611598 -0.040531244
-0.07093303 0.024674421 0.077597655 -0.1270641 0.061099008 -0.07841161 0.036782786 -0.026203047
-0.12908942 0.195683 -0.08390902 -4.791224e-05 -0.09444941 -0.005555627 -0.061079524 0.08286117
0.12777427 -0.064506605 0.06049807 -0.1160746 -0.09776821 -0.18855894 -0.07591068 -0.026918836
00000000: d94e 3a3d 2ec3 5ebc d353 d83b a72b f93d
00000010: bdfe 5a3d 0f69 59bd b2e2 9bbd 1704 26bd
00000020: 5645 91bd 0322 ca3c 85eb 9e3d 171d 02be
00000030: f442 7a3d 4496 a0bd 8ca9 163d c6a7 d6bc
00000040: 0430 04be 2061 483e 7ed8 abbd 60f5 48b8
00000050: b16e c1bd fa0b b6bb 862e 7abd 1eb3 a93d
00000060: 42d7 023e 0a1c 84bd d3cc 773d 85b8 edbd
00000070: b33a c8bd 9815 41be 0f77 9bbd e484 dcbc

model.2.weight f4 [32, 32, 5, 5]
-0.018046655 0.044034924 0.031363416 -0.018830601 0.015971363 -0.010222365 0.035777565 0.013430417
-0.023209944 -0.020374501 0.010767505 -0.006545166 -0.020173246 -0.008348838 -0.019905236 -0.025876347
0.009641357 -0.003062337 -0.019042097 -0.011492159 -0.009340228 0.017666105 0.022276592 -0.011397476
-0.03159956 0.01901379 0.00031636775 -0.035450548 0.014356555 0.001133953 0.012347023 0.030198203
0.0015860315 0.0023809755 -0.023070961 0.026844265 -0.010216952 -0.0072864695 -0.02279264 0.024397377
0.0015086646 0.026497237 -0.03215326 0.029700309 -0.009140421 0.014905669 -0.027222173 -0.0299457
0.0055491664 0.00063963013 -0.008599137 0.04396177 -0.009837519 -0.015927251 0.023067735 -0.018435985
-0.0051357686 0.03955653 0.047752887 0.032843087 0.040726826 0.04837888 0.017400064 -0.019178696
0.03520404 0.002389382 -0.0041749156 0.01387527 0.014374398 0.036318455 -0.02537657 -0.023790695
0.025842609 -0.03262839 0.032305453 0.013868858 0.043779988 -0.004620636 0.01146629 -0.017692776
0.042127993 0.025817934 0.042025812 -0.012830645 0.015623139 0.02970417 0.015722333 0.038733337
0.038141 0.045481976 0.0463648 0.02918203 -0.008986307 0.012233915 0.03996533 0.034854908
0.043728814 -0.0066551077 0.016921798 -0.013542032 -0.0300077 -0.0009498531 -0.023363719 -0.022717526
-0.028856203 0.0362723 -0.021738354 0.0021914036 0.023755109 -0.016453015 0.009795073 0.026325183
0.0040643425 0.025017282 -0.030308915 0.025310645 -0.03268673 0.007679015 0.0045388304 0.0054911245
-0.02003189 -0.015443469 -0.013530193 -0.011847516 -0.013918471 -0.012567169 -0.0012755914 0.014387179
-0.0003722397 0.006919272 -0.031050233 -0.0073194145 0.0093255555 0.016529042 -0.022627223 -0.0070714992
0.028962942 0.03039073 -0.027472254 -0.02855591 -0.007689279 -0.029342413 -0.0071640317 -0.016820546
0.02652657 -0.016133351 -0.019190159 -0.028659748 -0.007966792 0.0149352765 -0.013673861 0.004024879
-0.018610382 0.0045516766 0.031097244 -0.009085708 0.023613479 -0.0017714697 0.018230477 0.008810377
-0.014872978 -0.006033201 0.024821281 0.0020529728 -0.030121546 -0.00028716653 0.013148519 0.011520067
0.008499606 0.03339765 0.014491275 0.002672664 -0.020621892 0.021709727 -0.020308578 0.0052767084
-0.012749589 0.007449477 0.025524197 0.035307012 0.025477923 -0.024353458 0.024002323 0.030756518
0.029526914 -0.003692715 -0.0123635335 0.022756077 -0.005332409 0.004768132 0.00955097 0.029205164
-0.021870647 0.021373529 -0.020795103 0.02466911 0.015812056 -0.006416307 0.0191138 0.015015147
-0.031260718 0.013858518 0.016183984 -0.033054356 0.028817888 0.004306029 0.01743624 -0.0051348363
0.01898643 -0.021989267 0.0010724684 -0.01997345 -0.012744305 -0.0305018 -0.025480403 0.017025094
-0.028565321 0.03439069 0.011513528 0.011323455 -0.01773779 0.024814084 -0.015920792 0.031471826
0.0074769603 -0.0070630657 0.047356185 0.031374168 0.007131048 0.034293734 0.048610684 0.016039677
-0.01699854 -0.003821342 0.03893711 0.039910972 0.011996433 -0.01377992 -0.005155003 -0.0125395525
-0.01725413 -0.006993679 0.041245207 0.01692406 0.0044635693 -0.003209858 0.0044370275 -0.010892132
0.018112257 -0.02249259 0.011287675 -0.023391465 0.031283848 0.024367202 -0.0035712996 0.026430864
00000000: 94d6 93bc f75d 343d ed76 003d a242 9abc
00000010: 60d6 823c b57b 27bc 7f8b 123d 400b 5c3c
00000020: c822 bebc 6de8 a6bc 306a 303c d578 d6bb
00000030: 5d42 a5bc 91c9 08bc 4e10 a3bc a2fa d3bc
00000040: c8f6 1d3c 7db1 48bb 2cfe 9bbc 9c49 3cbc
00000050: c107 19bc 82b8 903c 667d b63c 7bbc 3abc
00000060: 8a6e 01bd cfc2 9b3c 29de a539 9834 11bd
00000070: c237 6b3c 26a1 943a 2b4b 4a3c 3962 f73c
00000080: 63e2 cf3a 240a 1c3b 50ff bcbc 81e8 db3c
00000090: 0165 27bc 56c3 eebb a1b7 babc 02dd c73c
000000a0: 62be c53a bc10 d93c 23b3 03bd 104e f33c
000000b0: b4c1 15bc e836 743c 0901 dfbc af50 f5bc
000000c0: c8d5 b53b daac 273a 65e3 0cbc 4211 343d
000000d0: 8c2d 21bc de79 82bc 8cf8 bc3c 1007 97bc
000000e0: f349 a8bb 0706 223d 8898 433d 7986 063d
000000f0: 2cd1 263d ef28 463d 948a 8e3c a41c 9dbc
00000100: 1d32 103d 2e97 1c3b bbcd 88bb 1a55 633c
00000110: 9882 6b3c a9c2 143d 86e2 cfbc b4e4 c2bc
00000120: e1b3 d33c 59a5 05bd b952 043d 353a 633c
00000130: a552 333d b468 97bb 1bdd 3b3c 71f0 90bc
00000140: 678e 2c3d 2280 d33c 4223 2c3d a037 52bc
00000150: 32f8 7f3c 2956 f33c 1fcc 803c d9a6 1e3d
00000160: bd39 1c3d 4f4b 3a3d 04e9 3d3d 270f ef3c
00000170: 4e3b 13bc c270 483c b0b2 233d 05c4 0e3d
00000180: fc1c 333d 1713 dabb 959f 8a3c 66df 5dbc
00000190: b5d2 f5bc 90ff 78ba 4565 bfbc 1b1a babc
000001a0: d863 ecbc 4392 143d a214 b2bc a79d 0f3b
000001b0: 139a c23c 79c8 86bc 847b 203c e9a7 d73c
000001c0: 2d2e 853b 0bf1 cc3c 674a f8bc 4558 cf3c
000001d0: 85e2 05bd 3fa0 fb3b 78ba 943b e4ee b33b
000001e0: eb19 a4bc 9b06 7dbc bead 5dbc 151c 42bc
000001f0: 4c0a 64bc 87e6 4dbc bf31 a7ba 34b8 6b3c
00000200: 2b29 c3b9 0fbb e23b 0f5d febc b3d7 efbb
00000210: 37ca 183c ea67 873c ba5c b9bc 09b8 e7bb
00000220: b143 ed3c fbf5 f83c 7e0d e1bc 15ee e9bc
00000230: 59f6 fbbb 805f f0bc 41c0 eabb 3ecb 89bc
00000240: 404e d93c 172a 84bc ae34 9dbc d9c7 eabc
00000250: 2687 02bc 17b3 743c 5408 60bc 22e3 833b
00000260: cd74 98bc 3b26 953b a6bf fe3c 39dc 14bc
00000270: 0e71 c13c a930 e8ba 1558 953c 6659 103c
00000280: cbad 73bc 28b2 c5bb 0056 cb3c 2b8b 063b
00000290: 76c1 f6bc d78e 96b9 e36c 573c aabe 3c3c
000002a0: ee41 0b3c f9cb 083d d06c 6d3c dc27 2f3b
000002b0: 3eef a8bc 99d8 b13c 2d5e a6bc 3de8 ac3b
000002c0: a7e3 50bc be1a f43b 1f18 d13c 169e 103d
000002d0: 14b7 d03c e780 c7bc 85a0 c43c 18f5 fb3c
000002e0: 6de2 f13c 7a01 72bb 6b90 4abc f46a ba3c
000002f0: 7dbb aebb fe3d 9c3b ac7b 1c3c ab3f ef3c
00000300: 122a b3bc 8a17 af3c 7e5a aabc e016 ca3c
00000310: 4988 813c e23f d2bb 8b94 9c3c 1702 763c
00000320: 3d0b 00bd d60e 633c 4694 843c 0164 07bd
00000330: 7e13 ec3c 9719 8d3b 72d6 8e3c 2142 a8bb
00000340: 6e89 9b3c d622 b4bc 1192 8c3a 5c9f a3bc
00000350: 7dcd 50bc e9de f9bc 47bc d0bc 3678 8b3c
00000360: d201 eabc 41dd 0c3d 3da3 3c3c 0386 393c
00000370: d74e 91bc e846 cb3c 526c 82bc 9ae8 003d
00000380: 4a01 f53b 4a71 e7bb 8ff8 413d 3382 003d
00000390: 91ab e93b 9677 0c3d ff1b 473d a465 833c
000003a0: 8640 8bbc 7b6f 7abb 857c 1f3d b079 233d
000003b0: b08c 443c 2cc5 61bc 4deb a8bb b272 4dbc
000003c0: 8958 8dbc 3b2b e5bb bcf0 283d 54a4 8a3c
000003d0: 2243 923b 7b5c 52bb 7c64 913b ea74 32bc
000003e0: 2860 943c 6142 b8bc f1ef 383c 759f bfbc
000003f0: 7e23 003d ba9d c73c 770c 6abb 8a85 d83c

model.2.bias f4 [32]
0.021140983 0.008175838 0.026050879 -0.017558673 -0.030709745 -0.031855274 0.027882077 -0.0070654145
-0.04737296 -0.028542675 0.013715847 0.017157657 -0.0009783639 0.032071155 -0.02778015 0.004414919
0.018498315 -0.026074288 0.055188026 -0.029852226 -0.052093565 -0.007209675 -0.0021900055 -0.06538712
0.029393185 -0.016125161 -0.034353767 0.05680738 -0.012803516 0.043795545 0.008807351 -0.0060257385
00000000: db2f ad3c f3f3 053c a768 d53c 35d7 8fbc
00000010: 0193 fbbc ad7a 02bd f468 e43c fe84 e7bb
00000020: 260a 42bd 54d2 e9bc 6fb8 603c 378e 8c3c
00000030: 723c 80ba 0b5d 033d 3293 e3bc 06ab 903b
00000040: c789 973c bf99 d5bc d70c 623d a88c f4bc
00000050: 1060 55bd 233f ecbb 3286 0fbb afe9 85bd
00000060: fac9 f03c ea18 84bc 89b6 0cbd dbae 683d
00000070: d7c5 51bc f562 333d b54c 103c 8f73 c5bb

model.4.weight f4 [64, 32, 5, 5]
-0.023975898 0.021281142 0.008643531 -0.032522485 0.018728657 -0.0062041907 0.01872946 0.012679281
-0.0038117275 0.016707782 0.04173755 0.017599512 -0.021118913 0.014044639 0.017307686 0.043809887
0.024735233 -0.0018427977 0.023130305 -0.0017913082 0.0019352312 -0.027135814 -0.035922065 0.014636142
-0.003735159 0.018858863 -0.031949654 0.000725815 0.01835063 0.012132056 0.029165203 0.0065283687
-0.013969469 -0.014420266 -0.013399973 -0.03960927 -0.03684516 0.008319328 0.025339536 -0.0066526136
0.0004105555 -0.022425773 -0.017380523 0.019912677 -0.016426587 0.006548302 0.032086916 -0.026679274
-0.0008134666 -0.024113601 0.029068794 -0.022466475 0.039416626 -0.03383881 0.0038556114 0.04462437
-0.010457613 0.02667947 -0.033311173 0.020198848 -0.02384381 0.004165981 0.007986021 -0.033880137
0.003870325 0.0004379509 0.0028785677 -0.011948886 -0.019364322 0.009726042 -0.00636627 0.02483976
-0.023090094 -0.014416793 0.019830216 0.012434989 -0.020979118 0.0049019586 -0.008236833 -0.010667452
0.010604102 -0.0054501514 -0.035516225 -0.015473753 -0.037082035 -0.014630758 0.020561423 -0.035291042
-0.030111847 0.018383225 -0.015349937 -0.031808056 0.010895409 -0.01798579 0.020263625 0.004406102
0.022116113 0.02143568 -0.034334417 0.010992999 -0.014959334 -0.024937771 -0.017428996 -0.027806604
-0.01314311 0.029495716 0.017199941 0.045173813 0.0048599965 -0.022256603 0.027266465 0.018298464
-0.013498376 -0.023114454 -0.0024539847 0.0398961 -0.024691176 0.018429793 -0.014338727 0.028178742
0.00924869 0.034007393 -0.00744714 -0.016774517 -0.0051305727 -0.022350771 -0.02203653 0.01475598
0.0014153477 0.0042506424 -0.02467602 -0.028527085 -0.0067824153 0.018279038 -0.00021952907 -0.02458747
-0.03033676 -0.0065532476 -0.032293018 0.03160686 0.020573257 0.023373978 -0.012160273 0.0042339405
-0.0341481 0.029784726 0.004081808 -0.003882812 -0.0055462983 -0.032331236 -0.023487074 0.003498981
0.027987748 -0.021763073 -0.012882503 0.005670949 -0.026692713 -0.009150138 0.023620762 0.033092804
-0.012809774 0.032108918 0.03184524 -0.016279666 -0.029073974 0.0019474161 0.014138497 0.016085252
0.0047750887 0.02814175 0.0067540067 0.0152285 -0.015934698 0.008964069 -0.02833899 -0.0021758634
-0.0016866617 -0.010941319 -0.012881565 -0.031009909 0.016133841 0.0039198925 0.016721988 -0.02275304
0.02834903 -0.02054769 0.0145219825 0.024286877 -0.014016913 -0.007683176 0.028143493 0.02934639
0.020831147 -0.0148057 0.001178604 -0.029822774 -0.0017445084 -0.034732133 0.035406295 0.008336057
-0.009856821 -0.03469929 -0.03636883 0.021953423 -0.022592874 0.0066340324 -0.007934907 0.00092628645
-0.007390839 0.01606554 -0.01119914 0.022039719 0.011027317 0.0132327285 0.026672194 -0.020429853
0.009288909 0.005080853 0.030472785 -0.00076606625 0.022776775 -0.02950984 -0.0015996917 0.0024140368
0.029720614 -0.024906738 -0.0052312003 0.028129784 -0.00032044787 0.030439876 -0.0031115878 0.0031501297
0.0026561012 0.03061714 -0.03002634 0.011258969 0.0054000136 -0.033101097 0.0022888838 0.03630827
-0.025611268 -0.014187104 -0.02582347 0.0047432627 -0.0022576898 0.00239274 -0.01652823 0.0005769798
0.00663845 0.012613618 -0.0017498725 -0.033191726 -0.02687326 -0.010465176 0.031587187 0.024201022
00000000: 1a69 c4bc ca55 ae3c 999d 0d3c 4c36 05bd
00000010: d76c 993c 864c cbbb 866e 993c c2bc 4f3c
00000020: 2dce 79bb c2de 883c fef4 2a3d da2c 903c
00000030: 9201 adbc 7c1b 663c d9c8 8d3c ff71 333d
00000040: 8ba1 ca3c 088a f1ba c47b bd3c 54ca eaba
00000050: 95a7 fd3a ed4b debc 0423 13bd 6ecc 6f3c
00000060: 92c9 74bb e77d 9a3c a4dd 02bd 9f44 3e3a
00000070: 0f54 963c 88c5 463c ddeb ee3c edeb d53b
00000080: 33e0 64bc fb42 6cbc 8f8b 5bbc 543d 22bd
00000090: f3ea 16bd ca4d 083c dc94 cf3c 2bfe d9bb
000000a0: d43f d739 41b6 b7bc 9961 8ebc e91f a33c
000000b0: 0d91 86bc 2393 d63b 926d 033d 7e8e dabc
000000c0: d23e 55ba e389 c5bc ae21 ee3c 9d0b b8bc
000000d0: 5473 213d 909a 0abd 6dae 7c3b 0bc8 363d
000000e0: 6856 2bbc e78e da3c 4c71 08bd 0e78 a53c
000000f0: 1854 c3bc c882 883b cdd7 023c e6c5 0abd
00000100: 47a5 7d3b c69c e539 5aa6 3c3b 43c5 43bc
00000110: eda1 9ebc fa59 1f3c 259c d0bb c17c cb3c
00000120: 7027 bdbc 6a34 6cbc fa72 a23c 20bc 4b3c
00000130: 66dc abbc 9ca0 a03b c8f3 06bc 89c6 2ebc
00000140: d4bc 2d3c 2f97 b2bb 7679 11bd a085 7dbc
00000150: 55e3 17bd d9b5 6fbc 6e70 a83c 578d 10bd
00000160: 1fad f6bc 6b98 963c 4d7e 7bbc 2a49 02bd
00000170: a882 323c ef56 93bc e7ff a53c 1061 903b
00000180: da2c b53c e199 af3c 3fa2 0cbd fb1b 343c
00000190: ff17 75bc 4c4a ccbc 41c7 8ebc adca e3bc
000001a0: 3356 57bc 00a1 f13c e4e6 8c3c 2d08 393d
000001b0: 9b40 9f3b 7b53 b6bc ec5d df3c a9e6 953c
000001c0: 4b28 5dbc 865a bdbc 08d3 20bb 186a 233d
000001d0: 2645 cabc 14fa 963c fbec 6abc 1bd7 e63c
000001e0: d187 173c 564b 0b3d 2307 f4bb b66a 89bc
000001f0: 5d1e a8bb f718 b7bc f485 b4bc 11c3 713c
00000200: 3083 b93a f948 8b3b 5d25 cabc a2b1 e9bc
00000210: 063f debb ecbd 953c 6331 66b9 a96b c9bc
00000220: cc84 f8bc a0bc d6bb af45 04bd 3276 013d
00000230: 3f89 a83c c97a bf3c e23b 47bc debc 8a3b
00000240: e1de 0bbd 19ff f33c b0c0 853b c776 7ebb
00000250: b9bd b5bb c26d 04bd f767 c0bc 294f 653b
00000260: 9046 e53c 7948 b2bc 2211 53bc 5ed3 b93b
00000270: adaa dabc 76ea 15bc 5480 c13c 528c 073d
00000280: 16e0 51bc a484 033d 2870 023d ef5c 85bc
00000290: 8b2c eebc 7140 ff3a 28a5 673c 38c5 833c
000002a0: 5978 9c3b 8789 e63c b750 dd3b f580 793c
000002b0: 7c89 82bc 08de 123c 2b27 e8bc ee98 0ebb
000002c0: fa12 ddba 3843 33bc 330d 53bc 7e08 febc
000002d0: 1e2b 843c 7172 803b 8dfc 883c 9564 babc
000002e0: 3a3c e83c a153 a8bc 9ced 6d3c 46f5 c63c
000002f0: 32a7 65bc 27c3 fbbb 2f8d e63c d767 f03c
00000300: 15a6 aa3c 9b93 72bc 637b 9a3a e44e f4bc
00000310: fda7 e4ba 4843 0ebd 3106 113d f593 083c
00000320: 817e 21bc d820 0ebd 7bf7 14bd aad7 b33c
00000330: b114 b9bc 4c62 d93b 6a01 02bc 08d2 723a
00000340: da2e f2bb e19b 833c 997c 37bc a48c b43c
00000350: ebab 343c 16ce 583c a57f da3c 825c a7bc
00000360: 8230 183c 497d a63b 10a2 f93c d6d1 48ba
00000370: 5c96 ba3c 9fbe f1bc bfac d1ba d134 1e3b
00000380: a578 f33c 3709 ccbc 7d6a abbb 6f70 e63c
00000390: c901 a8b9 0c5d f93c c8eb 4bbb 6872 4e3b
000003a0: fc11 2e3b ccd0 fa3c cdf9 f5bc 8a77 383c
000003b0: 99f2 b03b 0495 07bd 1901 163b fbb7 143d
000003c0: b9ce d1bc 0771 68bc be8b d3bc 5f6d 9b3b
000003d0: c0f5 13bb 84cf 1c3b 3666 87bc 7540 173a
000003e0: 5b87 d93b 59a9 4e3c fa5b e5ba 0cf4 07bd
000003f0: 5025 dcbc 2176 2bbc 9161 013d 3941 c63c

model.4.bias f4 [64]
-0.0059443833 -0.04835413 -0.00043369705 0.032546032 0.027205212 -0.019703435 -0.03292519 -0.012973475
-0.016753137 -0.029615056 -0.0015666583 0.021877188 0.0019865364 0.010970377 0.05124227 0.023338463
-0.035566173 -0.044498354 -0.00633106 -0.014684278 -0.003217846 -0.0064039193 0.019953487 0.010452
-0.012887171 -0.021699196 0.01970796 -0.017999955 -0.02883946 0.012698871 -0.026045006 0.038889475
0.017559675 0.04802648 -0.003598113 -0.0059977067 -0.0032066978 0.021605099 -0.024996268 0.016865283
-0.016964389 -0.006259898 -0.013131276 0.029507954 0.000480892 0.01075581 0.006710016 0.02448345
-0.05246447 0.00032227056 -0.046717416 0.019362291 0.011109901 0.02333703 -0.034946535 0.019026395
0.003404198 0.021361392 -0.0020210906 0.054550026 0.014011101 -0.06074761 0.019546736 0.020963954
00000000: 1ac9 c2bb fb0e 46bd d561 e3b9 fd4e 053d
00000010: 77dd de3c 1969 a1bc 90dc 06bd b38e 54bc
00000020: e03d 89bc 469b f2bc 5458 cdba ca37 b33c
00000030: 8d30 023b 19bd 333c 6ae3 513d 4e30 bf3c
00000040: d6ad 11bd e843 36bd c874 cfbb 5396 70bc
00000050: 7fe2 52bb f8d7 d1bb 7f75 a33c de3e 2b3c
00000060: b624 53bc 83c2 b1bc 9672 a13c a474 93bc
00000070: bb40 ecbc ed0e 503c 565c d5bc 924a 1f3d
00000080: 4fd9 8f3c 6ab7 443d 52ce 6bbb 6988 c4bb
00000090: 7627 52bb 2dfd b03c f9c4 ccbc 1029 8a3c
000000a0: e7f8 8abc d51f cdbb 9024 57bc aaba f13c
000000b0: 3b20 fc39 2339 303c b2df db3b 8491 c83c
000000c0: fce4 56bd 6cf6 a839 c35a 3fbd ab9d 9e3c
000000d0: 4d06 363c 4d2d bf3c 1924 0fbd 3edd 9b3c
000000e0: f718 5f3b 16fe ae3c 4674 04bb d96f 5f3d
000000f0: d18e 653c 7cd2 78bd 7a20 a03c 99bc ab3c

model.7.weight f4 [64, 1024]
0.013891469 -0.008272982 -0.018674912 -0.026496632 0.023616588 -0.0013910445 0.028881501 -0.028228177
0.030719709 0.022192424 -0.023454625 -0.024838464 -0.006575651 -0.012692206 -0.022698414 0.020481389
-0.005303454 0.01921468 -0.02985227 -0.0061993594 -0.027716095 -0.0073385728 -0.0028815798 -0.01703618
-0.024516841 -0.011140047 0.026074711 -0.011863925 -0.019556455 -0.021453973 0.0063876365 -0.023251161
-0.01365744 0.0069636484 0.018344032 -0.00025361485 -0.015396256 -0.01057215 -0.00370932 -0.0033580712
0.021283006 -0.002725388 0.0012440381 0.0035529414 0.011754193 -0.026594203 -0.028794635 -0.014143635
0.028893966 0.005055727 -0.029004522 -0.00601921 5.5315504e-05 -0.026911294 -0.014461095 -0.02658728
0.012836844 0.003689218 -0.018866336 -0.022569222 0.011431968 -0.0032687197 -0.025005015 0.009010534
0.025997784 -0.0018169704 -0.01234677 0.033209015 0.025988659 -0.018958636 -0.02000563 0.026553616
0.013373516 0.021906564 0.0005573507 0.0072631626 0.02562154 -0.0032493856 -0.024491996 0.022665918
-0.008937046 0.016411645 0.02083044 0.026597405 0.024160927 0.0074326573 0.019512055 -0.0109267365
0.023348104 0.0168799 0.027039923 0.008636773 -0.024890145 -0.0072536035 0.017272374 -0.019285029
-0.029820342 -0.008369352 -0.0063362317 -0.031967092 -0.01673546 -0.0006011068 -0.017169598 0.018817699
-0.0033149477 -0.033800233 0.024208207 0.013932649 0.016667759 0.012720261 -0.025282979 -0.00031277523
0.01083144 -0.0035123765 0.017326074 -0.02869419 -0.020450091 0.0066996515 0.0212782 -0.007144086
0.004696867 0.0025798366 -0.014502625 -0.028183687 -0.013540253 -0.006744224 0.018603528 0.0022960135
0.0077573773 0.000574338 -0.02861232 -0.02765715 -0.0017859844 -0.029280737 -0.032316975 -0.027702652
-0.0040086173 0.0060854326 0.02154562 0.029395165 0.019732017 0.027541446 -0.027812067 0.011282972
0.024941705 -0.00917761 -0.0017008436 0.005713146 -0.03176636 -0.025901446 -0.016939435 -0.01049452
-0.0024042241 -0.020608092 0.015895484 0.019602787 0.021033462 -0.017073274 0.00094068365 0.031112375
0.009219505 -0.03320311 -0.005383905 0.011238141 -0.02192136 0.0027325728 -0.026412511 0.020306718
0.008967234 -0.023798665 -0.022350928 -0.02601179 -0.019807404 -0.00014342186 0.01923161 0.031368867
0.02309784 0.0031784398 0.024217086 -0.0004288499 0.026564727 -0.016465707 0.018252099 -0.005888042
-0.030427845 -0.023989571 -0.0034378143 -0.0045018354 0.029802848 -0.022272332 0.029742055 -0.013674598
-0.008631551 -0.013156578 -0.021331528 -0.008035093 0.015143514 -0.02532808 0.007066876 -0.008908865
-0.030617978 -0.0043756957 -0.00052018225 -0.005902065 -0.0020645135 -0.01952253 0.0019709351 -0.01023482
0.010284991 -0.027247952 0.019926172 0.02645606 -0.027207352 -0.03510476 0.019828157 -0.029567473
0.008928411 -0.029929325 0.0006630115 0.002365086 0.02309394 -0.0037776472 0.012994103 -0.018607382
-0.0044255257 -0.012221582 0.026841141 0.030511638 0.015282219 -0.025228236 -0.029842917 0.0018416852
0.02036244 -0.021137368 0.029316373 -0.0082899155 0.024741452 0.014454233 -0.004413651 -0.012886068
-0.02854896 -0.027668057 -0.015570551 -0.010979977 -0.028365573 -0.021887966 0.0087869745 0.028485164
-0.026831532 0.023022223 -0.025586758 0.023377966 -0.028463176 -0.02338002 -0.023441292 0.022263285
00000000: 0b99 633c 678b 07bc 21fc 98bc 770f d9bc
00000010: 9377 c13c b553 b6ba e698 ec3c c73e e7bc
00000020: e6a7 fb3c e3cc b53c ea23 c0bc 097a cbbc
00000030: 8f78 d7bb f8f2 4fbc 06f2 b9bc 96c8 a73c
00000040: 99c8 adbb 1b68 9d3c bf8c f4bc ff23 cbbb
00000050: dd0c e3bc 6978 f0bb e3d8 3cbb 758f 8bbc
00000060: 8bd7 c8bc be84 36bc a29a d53c e860 42bc
00000070: dc34 a0bc 3ec0 afbc 614f d13b 3879 bebc
00000080: 75c3 5fbc 512f e43b 3946 963c 9cf7 84b9
00000090: 9440 7cbc d036 2dbc 1018 73bb 1613 5cbb
000000a0: b359 ae3c 6c9c 32bb fe0e a33a 77d8 683b
000000b0: a994 403c 16dc d9bc bae2 ebbc b4ba 67bc
000000c0: 0ab3 ec3c 83aa a53b e49a edbc cb3c c5bb
000000d0: 9202 6838 1375 dcbc 3bee 6cbc 91cd d9bc
000000e0: a051 523c cfc6 713b 938d 9abc 17e3 b8bc
000000f0: 264d 3b3c 0438 56bb 51d7 ccbc eba0 133c
00000100: 4ef9 d43c 6927 eeba 1b4a 4abc 2d06 083d
00000110: 2be6 d43c 244f 9bbc d9e2 a3bc f886 d93c
00000120: 971c 5b3c 6575 b33c 2c1b 123a d3ff ed3b
00000130: 44e4 d13c a5f3 54bb 70a3 c8bc e0ad b93c
00000140: b06c 12bc b771 863c 99a4 aa3c cde2 d93c
00000150: 23ed c53c a68d f33b bfd7 9f3c 0e06 33bc
00000160: 8644 bf3c b747 8a3c d482 dd3c 4081 0d3c
00000170: 6be6 cbbc a3af edbb cb7e 8d3c a3fb 9dbc
00000180: ca49 f4bc 9b1f 09bc 2aa0 cfbb edef 02bd
00000190: ce18 89bc 9893 1dba 42a7 8cbc 9327 9a3c
000001a0: 983f 59bb 1d72 0abd 4a50 c63c c445 643c
000001b0: d38a 883c a468 503c 401e cfbc fbfb a3b9
000001c0: 5a76 313c e62f 66bb 69ef 8d3c 1410 ebbc
000001d0: f386 a7bc c088 db3b 9f4f ae3c f018 eabb
000001e0: 2de8 993b 7a12 293b 6b9c 6dbc 7ae1 e6bc
000001f0: f0d7 5dbc a7fe dcbb 6d66 983c b778 163b
00000200: 9931 fe3b 2c8f 163a 6264 eabc 3f91 e2bc
00000210: b117 eaba 28de efbc ce5e 04bd acf0 e2bc
00000220: b85a 83bb 4f68 c73b 7180 b03c 21ce f03c
00000230: 0aa5 a13c 999e e13c 22d6 e3bc 37dc 383c
00000240: 8c52 cc3c b05d 16bc d7ee deba 5835 bb3b
00000250: 711d 02bd 452f d4bc 92c4 8abc 35f1 2bbc
00000260: 3090 1dbb 4dd2 a8bc 3f37 823c 0696 a03c
00000270: 5e4e ac3c 40dd 8bbc 3698 763a 61df fe3c
00000280: 680d 173c fcff 07bd 786b b0bb 2e20 383c
00000290: 6d94 b3bc f714 333b 0d5f d8bc 465a a63c
000002a0: 4eeb 123c 6bf5 c2bc 4b19 b7bc ad16 d5bc
000002b0: 2343 a2bc 8363 16b9 9c8b 9d3c a47c 003d
000002c0: ae37 bd3c 5f4d 503b e962 c63c 42d7 e0b9
000002d0: 459e d93c 17e3 86bc 6d85 953c 7af0 c0bb
000002e0: d143 f9bc c785 c4bc f44c 61bb 2284 93bb
000002f0: 1a25 f43c 7774 b6bc 9ca5 f33c 6c0b 60bc
00000300: 596b 0dbc b08e 57bc 75bf aebc 9fa5 03bc
00000310: 801c 783c d57c cfbc 4191 e73b 7df6 11bc
00000320: 8ed2 fabc ff61 8fbb d75c 08ba 1c66 c1bb
00000330: ca4c 07bb b6ed 9fbc ce2a 013b f2af 27bc
00000340: 6182 283c 1937 dfbc 363c a33c 61ba d83c
00000350: f4e1 debc 02ca 0fbd a96e a23c 7c37 f2bc
00000360: 7848 123c 582e f5bc f3cd 2d3a 8fff 1a3b
00000370: 812f bd3c 6792 77bb 38e5 543c 826e 98bc
00000380: 0004 91bb 083d 48bc f4e1 db3c 8bf3 f93c
00000390: 4662 7a3c 72ab cebc 2279 f4bc b364 f13a
000003a0: 22cf a63c 4628 adbc e428 f03c 6dd2 07bc
000003b0: 96ae ca3c 73d1 6c3c 63a0 90bb 1620 53bc
000003c0: 82df e9bc 1fa8 e2bc a01b 7fbc 5de5 33bc
000003d0: eb5e e8bc 644e b3bc 3ef7 0f3c b859 e93c
000003e0: cdcd dbbc 1a99 bc3c 529b d1bc 2683 bf3c
000003f0: 9b2b e9bc 7587 bfbc f407 c0bc 7e61 b63c

model.7.bias f4 [64]
-0.015630918 -0.020056225 -0.03255586 0.016489595 -0.013165914 -0.019021813 -0.021222819 0.0024891857
-0.008179093 -0.009570464 0.041788783 -0.022764869 0.0076326076 -0.036489837 -0.03346975 0.008241928
0.043242563 -0.032128587 0.00097294524 -0.016746778 -0.013349982 0.020387989 -0.033723563 -0.020999566
0.010531897 0.021960001 0.03475101 0.0030314769 0.015669076 0.026459452 0.00043003578 0.015152125
-0.00451149 -0.0033251462 0.011058586 0.009983862 0.017228592 -0.020237077 0.013039065 0.02238856
0.00526198 -0.010835797 0.02100149 0.015375558 -0.03837775 0.023188595 0.0279556 -0.01449493
-0.017755367 -0.028250434 -0.051362284 -0.024581995 -0.008206686 0.04237573 -0.01882424 -0.034434102
-0.04526426 -0.0071272417 -0.00023255643 -0.022525137 0.03126166 0.022793172 0.0017856754 -0.003601716
00000000: 690c 80bc f44c a4bc 4b59 05bd 3015 873c
00000010: d9b5 57bc a2d3 9bbc 7adb adbc 9b21 233b
00000020: 9a01 06bc 6fcd 1cbc b72a 2b3d 647d babc
00000030: f41a fa3b 5e76 15bd 9417 09bd 2709 073c
00000040: 1d1f 313d 4499 03bd 400d 7f3a 8a30 89bc
00000050: e2b9 5abc b604 a73c b821 0abd 4807 acbc
00000060: fa8d 2c3c 76e5 b33c 1357 0e3d beab 463b
00000070: 6f5c 803c 7ec1 d83c 6d76 e139 9e40 783c
00000080: 1fd5 93bb b2ea 59bb 122f 353c 5a93 233c
00000090: fa22 8d3c 3ac8 a5bc cda1 553c 3768 b73c
000000a0: b06c ac3b a088 31bc 510b ac3c c4e9 7b3c
000000b0: fd31 1dbd 02f6 bd3c 2403 e53c 257c 6dbc
000000c0: b473 91bc 746d e7bc 4261 52bd 2e60 c9bc
000000d0: 5675 06bc 2c92 2d3d 4b35 9abc c60a 0dbd
000000e0: 0467 39bd a38b e9bb 64da 73b9 a386 b8bc
000000f0: 3a0c 003d bfb8 ba3c 530d ea3a c40a 6cbb

model.8.weight f4 [10, 64]
0.02309654 -0.03502645 0.06553729 -0.06525419 0.067977734 -0.07416375 0.100756556 0.10919193
-0.08839651 0.09060035 -0.116603866 0.1279677 0.07273021 0.027031017 0.014269551 0.10933808
-0.12675335 0.035949748 -0.10800784 0.034982257 0.08605574 -0.055720165 -0.09301014 -0.00095282425
0.053938374 -0.08190414 -0.06371523 -0.124355316 -0.018999975 -0.13456355 -0.012546334 -0.11502014
-0.07761357 0.039812896 -0.02159628 -0.053523272 0.043192744 -0.12214355 0.11330826 -0.13245666
-0.076127514 -0.0970397 -0.07778211 -0.09343896 0.06761723 0.020080872 -0.12583521 -0.12555096
0.039515484 0.019538451 0.05210319 -0.047467124 0.087743714 -0.10044512 -0.103534445 0.11849412
0.0525727 0.075513154 0.06628539 -0.08803563 -0.10213648 0.07285608 -0.10253459 -0.027496167
-0.08588469 -0.045992497 0.16072261 -0.0060041 0.14174494 -0.021808546 0.05361786 -0.12693776
-0.052102152 -0.07672134 0.14873342 0.10991879 -0.11579499 -0.011613357 0.15524475 -0.05470498
0.15436031 -0.027479509 -0.11818333 0.11155867 -0.13725273 0.059343055 0.0039518075 0.17344494
0.13515562 0.01640519 0.1085174 0.12790129 -0.07033821 0.10469085 -0.011947689 -0.10984337
0.017872645 -0.15504572 0.07166221 -0.0050640567 -0.1373558 0.14166465 -0.026263773 0.1669705
-0.028643545 0.02921502 -0.072729796 -0.101945184 -0.08358301 0.025554037 0.14036159 -0.10823461
-0.03451896 0.0786063 -0.089484565 0.0135105075 -0.13396162 0.0992237 -0.040571228 -0.062303454
0.15650359 0.09034361 0.0061266646 0.014660586 0.1479675 -0.08890335 0.004404001 -0.09381302
0.08014103 -0.120598644 0.03246903 -0.008687587 -0.13354546 0.0622177 0.00067701115 -0.07895423
-0.07397691 -0.11481838 -0.032049958 -0.105908014 -0.076673426 -0.07596917 0.02346008 -0.0783614
-0.036358 -0.12815525 -0.02602833 0.08085253 -0.11017162 0.096585795 -0.00094923907 -0.16950756
0.12244908 0.059784938 0.10986372 -0.07284607 0.1286636 -0.14454901 -0.078045085 0.08811049
-0.14384727 -0.019272983 -0.0008307133 -0.04813229 0.0020761325 -0.105863936 -0.004290275 -0.13908884
-0.036629453 -0.02074331 0.100196354 -0.05414548 -0.12865222 0.018024512 -0.10126431 -0.0046135434
0.1499042 -0.15011331 -0.005275173 -0.00034237024 0.039430924 -0.019314509 -0.12777817 -0.0045637647
-0.12943085 -0.022605661 0.06635646 -0.15914495 0.041854057 0.13062978 -0.03012393 0.10953621
0.0029119027 -0.042322826 0.009955823 0.02535089 -0.1394283 -0.079381675 -0.0017572743 0.033640556
0.040030964 0.037432566 0.12446063 0.10339005 -0.040998206 -0.050298084 0.09426519 0.12954663
-0.12059542 -0.11880116 -0.06952094 -0.0073074535 -0.075909644 0.06145298 -0.13106401 -0.13608947
0.0594127 -0.028685348 0.1072471 0.023076707 0.05275302 -0.10371324 -0.12358222 -0.09862185
0.1361285 -0.05868376 -0.059729546 0.09159598 0.040487565 0.044916343 -0.0022140786 -0.070421055
0.020264797 -0.06096652 -0.035942003 -0.05968802 0.051231746 0.017908867 0.11733973 -0.012009916
-0.0054079886 0.117354564 0.04435434 -0.12599422 0.046346284 0.113484405 0.10669391 -0.038264066
0.0002596238 -0.12971798 -0.09621282 -0.105597444 -0.061200194 -0.013446752 0.07913515 -0.1007544
00000000: f434 bd3c e577 0fbd 6a38 863d fda3 85bd
00000010: e937 8b3d 2ae3 97bd 7459 ce3d 05a0 df3d
00000020: 3b09 b5bd ad8c b93d 02ce eebd f709 033e
00000030: 94f3 943d 2770 dd3c d6ca 693c a5ec df3d
00000040: a1cb 01be 0b40 133d 3733 ddbd 8e49 0f3d
00000050: fe3d b03d d43a 64bd 1a7c bebd f4c6 79ba
00000060: 7cee 5c3d 5cbd a7bd 217d 82bd 00ae febd
00000070: d6a5 9bbc 07cb 09be 248f 4dbc ae8f ebbd
00000080: ddf3 9ebd d912 233d afea b0bc 383b 5bbd
00000090: e0ea 303d 6626 fabd 290e e83d b8a2 07be
000000a0: bee8 9bbd c0bc c6bd 3a4c 9fbd ed5c bfbd
000000b0: e77a 8a3d a480 a43c f2da 00be 6e90 00be
000000c0: fdda 213d 1a0f a03c 286a 553d e36c 42bd
000000d0: fab2 b33d 2cb6 cdbd de09 d4bd 0cad f23d
000000e0: 7956 573d a4a6 9a3d a2c0 873d 064c b4bd
000000f0: ee2c d1bd 9235 953d a8fd d1bd a43f e1bc
00000100: 50e4 afbd a162 3cbd 7894 243e 0bbe c4bb
00000110: 9625 113e d6a7 b2bc 679e 5b3d f9fb 01be
00000120: 1169 55bd 1420 9dbd 934d 183e 1a1d e13d
00000130: ec25 edbd f345 3ebc 7bf8 1e3e 5412 60bd
00000140: a110 1e3e b51c e1bc 1a0a f2bd df78 e43d
00000150: fb8b 0cbe b411 733d 2a7e 813b 8d9b 313e
00000160: 3c66 0a3e 2d64 863c 5f3e de3d 8ef8 023e
00000170: 7b0d 90bd 2868 d63d 3dc0 43bc 90f5 e0bd
00000180: a769 923c 4ec4 1ebe a3c3 923d 63f0 a5bb
00000190: 00a7 0cbe 8a10 113e 2027 d7bc 51fa 2a3e
000001a0: dea5 eabc 5654 ef3c 5cf3 94bd a3c8 d0bd
000001b0: 922d abbd b356 d13c f3ba 0f3e 1baa ddbd
000001c0: c163 0dbd 57fc a03d af43 b7bd 2d5b 5d3c
000001d0: 3c2d 09be cc35 cb3d 042e 26bd e831 7fbd
000001e0: 7a42 203e 1206 b93d 30c2 c83b f432 703c
000001f0: cb84 173e f612 b6bd 704f 903b 0a21 c0bd
00000200: fb20 a43d 6cfc f6bd 3ffe 043d 6256 0ebc
00000210: 24c0 08be fdd7 7e3d 7379 313a c1b2 a1bd
00000220: 3581 97bd e625 ebbd d146 03bd 4de6 d8bd
00000230: f506 9dbd b995 9bbd 5b2f c03c f17b a0bd
00000240: 20ec 14bd 213b 03be 5d39 d5bc 0396 a53d
00000250: a9a1 e1bd c6ce c53d 5bd6 78ba 6493 2dbe
00000260: 95c6 fa3d 0de1 743d 3b00 e13d 5230 95bd
00000270: 64c0 033e a804 14be 1ad6 9fbd 4673 b43d
00000280: b34c 13be 60e2 9dbc 3ac4 59ba 5d26 45bd
00000290: b90f 083b 31cf d8bd 6f95 8cbb 4e6d 0ebe
000002a0: c408 16bd e0ed a9bc bf33 cd3d a7c7 5dbd
000002b0: 68bd 03be 24a8 933c aa63 cfbd 352d 97bb
000002c0: 7d80 193e 4eb7 19be 5cdb acbb 2880 b3b9
000002d0: 5282 213d 7639 9ebc 48d8 02be a28b 95bb
000002e0: 8589 04be 822f b9bc e5e5 873d e5f6 22be
000002f0: 296f 2b3d d0c3 053e 76c6 f6bc 8554 e03d
00000300: 9fd5 3e3b b35a 2dbd c01d 233c abac cf3c
00000310: 4bc6 0ebe dc92 a2bd 5754 e6ba aeca 093d
00000320: 82f7 233d e452 193d 37e5 fe3d 2abe d33d
00000330: bced 27bd 5d05 4ebd 1c0e c13d dfa7 043e
00000340: bbfa f6bd 064e f3bd ff60 8ebd 5d73 efbb
00000350: 8476 9bbd 1fb6 7b3d a535 06be 0a5b 0bbe
00000360: bb5a 733d 89fd eabc 5ea4 db3d 5d0b bd3c
00000370: 8d13 583d 9b67 d4bd ad18 fdbd 41fa c9bd
00000380: 4565 0b3e 625e 70bd f8a6 74bd ac96 bb3d
00000390: 4ad6 253d 33fa 373d 131a 11bb ea38 90bd
000003a0: 5c02 a63c 08b8 79bd ec37 13bd 6d7b 74bd
000003b0: 61d8 513d 9eb5 923c d04f f03d 3dc5 44bc
000003c0: 7f35 b1bb 9757 f03d e5ac 353d a104 01be
000003d0: 9ad5 3d3d 836a e83d 5682 da3d c8ba 1cbd
000003e0: 1e1e 8839 cad4 04be 3a0b c5bd 7943 d8bd
000003f0: 0ead 7abd c44f 5cbc 9c11 a23d 5358 cebd

model.8.bias f4 [10]
0.015384188 -0.055406146 0.106401205 -0.04585769 0.04630061 -0.031208673 0.1090733 -0.053256724
-0.14265199 0.096862525
00000000: f60d 7c3c 8ef1 62bd e0e8 d93d 46d5 3bbd
00000010: b5a5 3d3d 55a9 ffbc d361 df3d b923 5abd
00000020: 5d13 12be dc5f c63d
