tudui/lixiaoning_3.pth (torch, 585095 bytes, 10 tensors)

model.0.weight f4 [32, 3, 5, 5]
00000000: 9c3c d43c 1594 bb3c 2c1c e03d 6c2b 2ebd
00000010: 276a e93d 6d30 d0bd c712 53bc 599e c4bd
00000020: 896f e6bd 4a10 4c3d ce76 483d fd30 52bc
00000030: 79fb eebc 9adc 16bc adf6 15bc f18d 81bd
00000040: 0bb8 d5bc 6a9a dcbd ff95 913d ba2e 003d
00000050: 11a4 d73d 9d65 883c 8d1e 13bd 5ff6 583d
00000060: 663f 42bd 7f95 49bd 3d70 adbd f357 d4bd
00000070: 275a b43d f14a 363b c6be a5bd 1450 003d
00000080: 381a b8bc 3e9e cebd d838 f3bb 7919 8c3d
00000090: 45ba 3abd eaf0 f53c 82d2 cabd 7e43 fbbd
000000a0: 4552 d9bd fc5a bbbd 6dda 15be 5a2f 45bd
000000b0: 90e9 ae3b 484e ce3d 1df3 d4ba d56b febc
000000c0: ffbe 60bd f42b bcbc 1604 ec3c 4f2f 4abd
000000d0: ce64 44bc e782 cb3c 1c3b 80bc 6154 973d
000000e0: 5e2b 983d 4bc8 c23a 56aa 95bc edaf 8fbd
000000f0: 36ff 743d ee3b 2a3d 703e f93c 69f0 883d
00000100: 3d93 d1bd be9f afbd 58d4 85bd 3468 89bd
00000110: 174b 12bc 5e66 c1bd 1dbd ad3d 90d6 ed3a
00000120: ad15 0dbd 5f4e d7bd 8e07 08bd d361 a5bd
00000130: 9d5d 9abd b4cb 99bd a8ff d53c 2e99 a0bd
00000140: 560d 91bb d09b ba3c 9187 b1bd 0cb5 ad3d
00000150: f126 92bd 6bdc a3bc 16f1 eabd 0c41 71bd
00000160: 20b3 9c3c 6c76 5a3c 22d8 7abd cecd 253c
00000170: b0dd caba 7e96 5abd 32c6 fc3c c3c4 813d
00000180: 54b6 acbd 1bcc b3bd 17f7 df3c 453e 5dbd
00000190: 1319 943d 87a0 7f3d 4eaf cf3d b3ab dcbd
000001a0: 5878 393d 7a63 f2bd 9c6d 22bd cf2d 0fbe
000001b0: a90f 173d b0d6 a5bd c6b1 08be 0616 fdbd
000001c0: 0a04 0abe ee25 c6bd f9fd 9ebd 27a2 acbd
000001d0: fd4f 263d efd9 f8bc a6a3 ff3c c756 88bd
000001e0: 8984 07be c591 463d eec6 81bd 1410 9fbd
000001f0: caf9 65bc ba19 243e 4e67 1e3e 8428 793d
00000200: 7174 1b3e 80d8 353e bc21 51bc 64b4 203d
00000210: a3ad 083d 5bc6 d4bc 9c85 19bd f75e fe3c
00000220: 5025 f53d c140 8a3d 42bf eb3c 5816 d9bb
00000230: 0b62 603d b064 ad3d d43f a93d 675a cd3d
00000240: 7e0e 8e3c ae18 52bd e4a0 8c3b 9402 863c
00000250: e73a ff3c 8d9d 243d 37fb fc3d e49e a83d
00000260: 0aae 103e c222 093e fd56 873d 1afe 143e
00000270: 2721 103c f2fa 0f3e 2f82 eb3d e47b 32bd
00000280: 7bb3 b83c 3cc1 3bbd e90d 313d ae80 0b3e
00000290: 5279 583d 8819 bd3d 11eb 7dbd 4078 113d
000002a0: db8e ccbd 1345 f73d 5e75 87bd 8d9d 793d
000002b0: a4f8 423d b445 8e3d fb39 773d 3f9b 90bd
000002c0: e132 b4bd 0954 e43c e839 c7bd f7e1 e23c
000002d0: ed95 cb3d abce ccbd 8410 eebd 9ba1 373c
000002e0: a0a7 333c a43d f43d f3d5 233c 82fd f3bd
000002f0: 5573 b4bc 4e2f 763d 4c81 91bd 992f b8bd
00000300: be58 58bd d1ab e73c 9b06 663c e31f 4ebd
00000310: 1929 103d 4e98 9fbd 5ad4 e8bc efee 793d
00000320: 3bbb 233d 4ca1 0dbd ff29 b13d 44a2 553d
00000330: 82e3 d1bd 4cf0 5cbc 95d2 1abe be4d f1bd
00000340: 0585 053c 66e5 953d fff7 4fbd f3f6 98bc
00000350: d395 06be 63c7 dbbd 8469 fabd 12ee 923d
00000360: 318d 0dbc 4909 463c b1a9 02be 38f9 dcbd
00000370: 55c1 463d 5eb6 c73c 4c48 c03c a52b c3bd
00000380: 97df 57bd bf3d d13d c7fe e23d 4c02 693c
00000390: 2763 c0bd f1fe eabd c00d 053e f30b bb3d
000003a0: b0d3 02be 11c5 c53d 7add 69bd fc61 cf3d
000003b0: 19b0 563d 822e 47bc 9afe 5dbc 529e afbd
000003c0: 41fe 013e 7c88 693d 231c 4b3c 83f9 da3c
000003d0: d3e3 db3d 923e 923b 8b29 29bc 7b7c 82bd
000003e0: 96f9 f63d 0961 d7bb 705e 183a 2b9b c73d
000003f0: 8021 8a3d aebc 50bd 76d7 f4bd e225 1e3e
0.025907807 0.02289776 0.10942873 -0.04252188 0.113972 -0.101654865 -0.012882895 -0.09600515
-0.112517424 0.049820222 0.048941426 -0.0128290625 -0.029172646 -0.009207869 -0.00915305 -0.06325901
-0.026088735 -0.1077164 0.071086876 0.031294562 0.1052934 0.016650015 -0.035917807 0.052969333
-0.047423743 -0.049214836 -0.084686734 -0.103683375 0.08806258 0.0027815665 -0.08093028 0.03132637
-0.02247344 -0.10088776 -0.007422548 0.06840796 -0.045587797 0.030022103 -0.099034324 -0.122687325
-0.10611395 -0.09148213 -0.14634104 -0.04814086 0.0053379014 0.10073525 -0.001624677 -0.031057278
-0.054869648 -0.022970177 0.028810542 -0.049361523 -0.011986924 0.024842693 -0.015653186 0.07389141
0.07430147 0.0014860717 -0.018269699 -0.07015977 0.0598137 0.04156106 0.03042528 0.066864796
-0.102331616 -0.0857539 -0.06534642 -0.06709328 -0.008929036 -0.09443353 0.08483336 0.001814561
-0.0344445 -0.10512995 -0.03321033 -0.08075299 -0.075373866 -0.075095564 0.026122883 -0.07841717
-0.0044266386 0.022779375 -0.08668435 0.084817976 -0.07136334 -0.020002564 -0.11471765 -0.058899924
0.019128382 0.013333898 -0.061241277 0.010119868 -0.0015477445 -0.053366177 0.030856226 0.063363574
-0.08433214 -0.087791644 0.027339501 -0.054014463 0.07231345 0.06240895 0.101408586 -0.107749365
0.045280784 -0.1183538 -0.039655313 -0.13982318 0.03688017 -0.08097589 -0.13349065 -0.12357716
-0.13478103 -0.09675203 -0.07763285 -0.084293656 0.040603627 -0.030377356 0.031205963 -0.066571765
-0.13234152 0.04847886 -0.06336771 -0.077667385 -0.014036605 0.16025439 0.15469095 0.060829654
0.15181138 0.1775837 -0.012764391 0.039234534 0.033368718 -0.02597349 -0.037480935 0.031051142
0.119700074 0.06750632 0.028777722 -0.006624978 0.054781 0.0846647 0.082641274 0.100270085
0.017340895 -0.051293068 0.0042916406 0.016358651 0.031156017 0.040189315 0.12352603 0.08233431
0.1412889 0.13392165 0.066083886 0.14550057 0.008796967 0.14060572 0.1149944 -0.043575183
0.02254652 -0.04583858 0.043226156 0.13623306 0.052850075 0.09233385 -0.061991755 0.03551507
-0.09988185 0.12073722 -0.06614183 0.060941268 0.047600403 0.069468886 0.06035803 -0.07060861
-0.08798767 0.027872102 -0.097278416 0.027695639 0.099407054 -0.10000356 -0.11624244 0.011207963
0.010965258 0.119258195 0.00999974 -0.11913587 -0.02202765 0.060103707 -0.071047395 -0.089934535
-0.052819006 0.02828017 0.014039661 -0.05032338 0.035195444 -0.07792722 -0.02842157 0.06101888
0.03997348 -0.034577653 0.08650588 0.0521567 -0.10248472 -0.013485026 -0.15119393 -0.11782406
0.00814939 0.07319145 -0.050773617 -0.018672442 -0.13143091 -0.107313894 -0.12227157 0.071743146
-0.00863962 0.012087175 -0.12760045 -0.10789722 0.04852422 0.024378952 0.023471974 -0.09529809
-0.052703466 0.10216855 0.11083751 0.014221739 -0.09393912 -0.114744075 0.12993526 0.091331385
-0.12776065 0.09656728 -0.057095982 0.10126111 0.052414034 -0.012157084 -0.013549471 -0.08575119
0.12694646 0.057014927 0.012396845 0.026730305 0.107368134 0.0044630254 -0.010324846 -0.06371399
0.120593235 -0.006572847 0.0005812412 0.09746393 0.06744671 -0.05096119 -0.119551584 0.15444139

model.0.bias f4 [32]
00000000: 5f67 423d 1e65 fbbc f935 3cbc fafc 073e
00000010: 0da7 f93c 8e76 a5bd 9ade debd 5357 cbbc
00000020: 48b2 babd 2f3e 083d 23cc 6c3d 03c6 0dbe
00000030: b181 4d3d 8ccd bdbd 35f9 ab3c d411 6cbd
00000040: 8c60 22be 3527 6d3e 2e30 d3bd 2aad 0dbc
00000050: 1d72 febd 85c2 34bd bc9d b4bd 19c3 b93d
00000060: f32c 0a3e 523a a9bd 36ad 413d 1431 1fbe
00000070: ff8d 17be 686a 78be 4b34 a4bd 0d62 2cbd
0.047461864 -0.030687865 -0.011487477 0.13280097 0.030475164 -0.08079253 -0.10882302 -0.024821913
-0.09116036 0.033262428 0.057811867 -0.13845067 0.05017251 -0.092677206 0.020992855 -0.05763419
-0.15857142 0.23159488 -0.10311924 -0.008647243 -0.12424109 -0.04413082 -0.08819148 0.09070415
0.1349371 -0.08263077 0.047284327 -0.15546066 -0.14800261 -0.24259341 -0.080177866 -0.042085696

model.2.weight f4 [32, 32, 5, 5]
00000000: e4b9 65bc 4053 4b3d 36d5 0d3d 2fe7 93bc
00000010: 5815 533c e970 c5bb 7e06 323d ae29 9b3c
00000020: bfa4 a6bc 40cc b8bc ac2c 4b3c 7a87 38ba
00000030: ac8a 7cbc 64d0 b9bb d953 b7bc f24b d6bc
00000040: 3252 5a3c dcb6 b5b9 22f8 92bc fef7 6ebc
00000050: 42ac 1cbc 99a8 ac3c 19e1 c83c 7136 2abc
00000060: da0e 0bbd ab68 9f3c e3ca ca3a 5a9f 0bbd
00000070: f4f1 773c 5b6f 153a 8821 313c 828c f73c
00000080: 1d1a 0c3b 3fec 2c3b 9869 c5bc dd15 c93c
00000090: f3aa 39bc e178 00bc 6c3d bdbc e1f3 bc3c
000000a0: 164d e1b9 601c ce3c cd94 08bd 0feb eb3c
000000b0: 8cf9 30bc 208f 6f3c c18b ddbc 6453 f4bc
000000c0: 0313 c33b 703f 9039 8551 61bb e568 543d
000000d0: 0d3c e8ba da4c 18bc ddeb e63c 4c20 53bc
000000e0: 7147 6a3b b884 443d ba27 623d 89cf 1e3d
000000f0: ab67 343d 5215 603d eea4 bd3c 1ef1 63bc
00000100: 58d5 1f3d f17a 583b ddf2 5eba 6c67 883c
00000110: 673f 863c ace1 183d 0d42 d6bc be22 bdbc
00000120: 3a79 d73c 1658 07bd 8d9d ff3c c9c2 923c
00000130: e737 463d 8e64 84ba 49a5 6e3c 335f 7cbc
00000140: 3a97 4e3d aecd 083d c382 3c3d 62bb 15bc
00000150: 4a96 8f3c 68ef 243d 2a37 cc3c bd89 313d
00000160: 9099 2b3d b2a7 3d3d 922a 5f3d c851 173d
00000170: 61a0 90bb ce15 6f3c b2bd 1f3d c4d2 243d
00000180: 4f7f 4b3d a916 60bb b7bc 903c b5e6 75bc
00000190: 3c98 e9bc f6fb 0b3b 19c3 a1bc 1fd7 a1bc
000001a0: 5e7d dbbc 9cc2 173d 5e20 98bc d660 d33b
000001b0: 59a3 df3c 67b0 5bbc f7c9 1e3c 812e e53c
000001c0: 6fa5 dc3b 546d e23c f708 e8bc 8633 c63c
000001d0: 6bf3 05bd 9e81 0e3c 49d1 bb3b 0be1 c43b
000001e0: 746c afbc 54bd 83bc 2fef 59bc a6cd 42bc
000001f0: 4905 6dbc ebf2 31bc d54e 45bb 46d4 4a3c
00000200: 1cf7 b0ba 475b e43b ec90 f9bc 99ca 14bc
00000210: 6570 ff3b b178 803c 5ee1 b5bc 2af9 e5bb
00000220: df41 f03c 1236 013d 327b d5bc e334 dcbc
00000230: db99 42bc ac89 04bd ac93 0dbc df45 8fbc
00000240: 16de d13c 8377 aebc e858 bebc 7375 00bd
00000250: cec0 23bc 8f49 4e3c 72d4 43bc 9487 a63b
00000260: 0ac8 92bc a827 bf3b c1ab 063d 2e09 f7bb
00000270: 7642 c63c 400d aaba 9d2e 9e3c df1b 2d3c
00000280: 9931 67bc a882 b6bb 4f78 d03c a742 4b3b
00000290: e209 e7bc 3dcb 83ba ae46 463c 553a 373c
000002a0: 402c 0d3c 4f4a 0b3d 47c1 4e3c d45f 073a
000002b0: e405 b6bc c5c4 a73c 8908 acbc c819 b93b
000002c0: 9a19 3dbc 8b50 093c f9f1 d63c 3efd 093d
000002d0: 9062 d63c d71b b8bc 67ee d73c 9d13 053d
000002e0: bfc2 ec3c ac71 88bb b26c 3abc eb14 ca3c
000002f0: 0ca1 8cbb bc77 883b 147d 173c d0d4 f53c
00000300: 6b1a a3bc d4c3 b63c 7c8a acbc 2f49 cd3c
00000310: 13ab 873c b12f 94bb ceb8 a33c 44b6 723c
00000320: c789 ffbc 6464 4a3c 2ccc 613c f5bd 0dbd
00000330: 32a8 e63c ec3d b73b a986 8e3c be42 d1bb
00000340: c22c 943c dd0e b7bc c552 4a3b 7ef9 94bc
00000350: ff2b 49bc f8e8 f2bc 446c cbbc 90a1 8d3c
00000360: d051 e2bc 2cdd 0f3d 31e7 463c b881 393c
00000370: 462b abbc 309c b73c b148 94bc 3d20 f13c
00000380: afff a03b 78ce 54bb 4175 573d f501 103d
00000390: df70 143c 74e7 073d a090 613d 7a45 ca3c
000003a0: af5f 32bc da6c df39 3d34 1f3d 0b09 3c3d
000003b0: 6dc9 a63c 9f1c f9bb f21a 5dba bff1 5bbc
000003c0: e2fb 63bc 2aa3 bdba 3170 3a3d e3ea 9b3c
000003d0: 5cf8 d83a 1b21 b3ba f4a9 103c 81cc 08bc
000003e0: b1e8 943c ea64 d5bc d1bc 603c a517 a3bc
000003f0: eaa2 113d c7c9 e03c 49c8 3bbb 998c e03c
-0.014021371 0.04963994 0.034627162 -0.018054573 0.012883507 -0.006025423 0.043463223 0.018940773
-0.020342229 -0.022558331 0.012400787 -0.00070392305 -0.015413921 -0.005670594 -0.022378849 -0.02615926
0.013325261 -0.0003465925 -0.017940585 -0.014585493 -0.009562554 0.021076487 0.024521397 -0.010388956
-0.03394971 0.01945909 0.0015471842 -0.034087516 0.01513337 0.0005700492 0.010811217 0.030218367
0.002137787 0.002638593 -0.024098203 0.024546558 -0.011332261 -0.00784132 -0.023100577 0.02306551
-0.00042972778 0.025160015 -0.033345032 0.028798608 -0.010801684 0.014621526 -0.027044179 -0.02982492
0.005953194 0.00027513085 -0.0034380865 0.051857848 -0.0017718092 -0.009295667 0.02818864 -0.012886118
0.0035748149 0.047978133 0.055213667 0.03877214 0.044044178 0.054707833 0.023149934 -0.013912467
0.03902182 0.0033032263 -0.00085048174 0.016650878 0.016387654 0.037324592 -0.026154542 -0.023087855
0.026302923 -0.03304299 0.031203056 0.017915146 0.048393156 -0.0010100768 0.014565774 -0.015403557
0.05043719 0.033399276 0.04602314 -0.009138914 0.017527718 0.040267378 0.024928648 0.043344248
0.041894495 0.046302505 0.054483958 0.036943227 -0.00441365 0.014592601 0.038999267 0.040240064
0.049681958 -0.0034193194 0.017668111 -0.015008618 -0.028514974 0.0021359897 -0.01974635 -0.019755898
-0.026793178 0.03705083 -0.018570121 0.0064507527 0.02729957 -0.013408757 0.009691707 0.027976276
0.0067335884 0.027640022 -0.028324587 0.02419449 -0.032702845 0.008697895 0.005731736 0.0060082725
-0.02141402 -0.01608149 -0.013301655 -0.011889851 -0.014466592 -0.010861139 -0.0030106802 0.0123797115
-0.0013501379 0.006968889 -0.030464612 -0.009081506 0.007795381 0.01568255 -0.02220219 -0.007018228
0.029328285 0.031545706 -0.02605972 -0.026880687 -0.011877502 -0.032357857 -0.008641165 -0.017489372
0.025618594 -0.021297222 -0.023235753 -0.03136201 -0.009994699 0.01259078 -0.011952506 0.00508208
-0.017917652 0.005833585 0.03287864 -0.007538936 0.024201613 -0.001297392 0.019309336 0.010565727
-0.014110946 -0.0055697747 0.025447993 0.003101507 -0.028202955 -0.0010055077 0.012101812 0.011183341
0.008616507 0.034006413 0.012619323 0.0005164121 -0.022219606 0.02047957 -0.021000164 0.0056488253
-0.011541748 0.008381019 0.026238428 0.033688776 0.026170045 -0.022474213 0.026358796 0.032489408
0.028901456 -0.0041639414 -0.011378454 0.024668178 -0.004291659 0.004164664 0.00924613 0.030008703
-0.019910058 0.022310175 -0.021062128 0.02505931 0.016561067 -0.004522287 0.019985583 0.014813963
-0.031193627 0.012353037 0.0137815885 -0.034604985 0.028156374 0.0055920985 0.017398195 -0.00638613
0.018087748 -0.022345955 0.0030872088 -0.018185373 -0.012278556 -0.029652104 -0.024831899 0.017288953
-0.027626902 0.035123035 0.012140081 0.011322431 -0.020894658 0.022413343 -0.018101068 0.029434318
0.0049132924 -0.0032471698 0.052602056 0.035158116 0.009060114 0.033179715 0.055069566 0.024691332
-0.010887071 0.00042614975 0.038868178 0.04590706 0.02035972 -0.007602289 -0.0008434496 -0.013424336
-0.013915034 -0.0014468182 0.04551715 0.019032901 0.0016553509 -0.0013666482 0.0088295825 -0.008349539
0.018177362 -0.026049096 0.013716892 -0.019908736 0.035555758 0.027439965 -0.0028653315 0.027410792

model.2.bias f4 [32]
00000000: 6828 d63c 2bad 2cbc bbd4 c73c dc14 afbc
00000010: 3866 5cbd 99fb 0dbd f87e 973c 6a97 5ebc
00000020: 795b 62bd 2b0a 30bd de4d 193c b2ec 633c
00000030: f4eb 18bc ef7b f23c 2746 ddbc 26dd 4ebb
00000040: 9515 5b3c d454 02bd 24cd 8e3d d25a 2cbd
00000050: ac19 87bd c08c 80bc 66d0 463b d8d6 abbd
00000060: e6bc 013d 23ec 99bc 256a 3ebd 1627 4a3d
00000070: 2a97 97bb 67a7 3e3d 7783 4d3b f132 48bc
0.026142314 -0.010539333 0.02439343 -0.021372251 -0.05380842 -0.03466377 0.01849316 -0.013585905
-0.055263016 -0.042978447 0.009356944 0.013911413 -0.009333599 0.029600112 -0.02701099 -0.003156492
0.013371845 -0.03181918 0.06972721 -0.0420788 -0.065966934 -0.015692115 0.0030336617 -0.083905876
0.03167429 -0.018789357 -0.046487946 0.04935368 -0.0046261745 0.046546366 0.0031358877 -0.012219177

model.4.weight f4 [64, 32, 5, 5]
00000000: 7211 b7bc 6a22 d43c 95bb 403c 23ef 02bd
00000010: d400 933c e265 2f3b 90b4 e33c 79b9 7a3c
00000020: 5eee 93bb 6184 863c 6460 513d fbe0 c63c
00000030: b960 bdbc f4c0 303c 4844 853c 3ece 483d
00000040: a690 e53c 4548 9dbb f655 a93c c51c ffba
00000050: 6185 a33b 0e87 c2bc 7b14 0cbd 2145 873c
00000060: 16cc e0ba b8c9 9e3c 14d9 0bbd 3418 57ba
00000070: b890 893c 2bfe 373c 6679 f43c 96b4 a43b
00000080: 4fed 61bc 8f9f 6abc 153a 69bc 1d24 2abd
00000090: a91e 22bd fe6f 153c 22e6 d43c f4f6 cfbb
000000a0: 2e76 3cba c51c ccbc 4d3c 88bc 3dad aa3c
000000b0: 3d8b 81bc bff6 a63b 8c86 f43c 3fff d9bc
000000c0: 54f3 aab8 9923 c8bc 5a47 f33c 15b3 9abc
000000d0: 0ab4 2d3d 9b8d 08bd 1286 3c3b 3b1a 4a3d
000000e0: 6ef3 b3bb 59be e63c 8c57 0bbd ebbe a93c
000000f0: 0f8e 93bc d437 e43b 3204 b23b 56d4 16bd
00000100: 40d7 843b 6a9e 343b 8009 533b 6b7a 77bc
00000110: 509a b5bc 9630 203c 4519 a8bb e0a9 d43c
00000120: fcbd bdbc 003a 78bc ddc8 9e3c d60c 453c
00000130: e8e8 9cbc 8a0e d93b 6452 03bc 78f1 3ebc
00000140: cfcc 533c ecc4 4cbb de4b 0fbd 5684 83bc
00000150: a748 16bd 785c 3dbc 8127 b63c c912 17bd
00000160: 01fa f8bc 8c53 9a3c 8f28 7abc 89ac febc
00000170: b609 243c 530d 91bc 0c1c b23c e265 9a3b
00000180: f4b3 ba3c 36b0 a73c 8d46 12bd 9cd7 233c
00000190: 4a43 40bc 2c2d a5bc 1920 3ebc 70a9 b8bc
000001a0: 489e 4abc a415 ba3c 9bcd 863c c498 4a3d
000001b0: 43f5 fe3b e74c afbc dfa6 e23c ee04 c13c
000001c0: 744b 21bc 2109 c6bc 4ecd d5ba ddd5 353d
000001d0: a4ba b6bc 22bc 683c 75da afbc e283 d93c
000001e0: 9ac2 d83b 7c45 fc3c bdc3 5dbc 658c cabc
000001f0: 61aa 11bc 143d b0bc c10c a4bc 1bb2 8e3c
00000200: c711 813b 651e a13b 9d0d d7bc 512e d7bc
00000210: 6ab4 9abb b5f9 a03c 487c b239 81e2 babc
00000220: 925c c5bc 582d 76bb 05e7 02bd 99df 043d
00000230: 2f6f c03c b17f e63c 4e67 30bc 366e 573b
00000240: 365e 0bbd 10b8 fe3c 835b d03b 127e 80bb
00000250: 5cec febb f6b3 09bd 59c8 b5bc 27ce bc3b
00000260: b19a 023d c540 96bc 4412 4fbc 0420 183b
00000270: 0168 d2bc d98e c4bb fc75 ce3c b50c 083d
00000280: c2bc 1ebc 184f 133d d615 073d 120b 93bc
00000290: 4a83 eebc 9b7f ad3b 3df2 6a3c 6fbd 3c3c
000002a0: 7b96 06ba 563c d53c 7a52 8e3b 1119 443c
000002b0: a00d abbc acb9 823b a5e1 fbbc cc8e c9ba
000002c0: 898a ba3a 2716 08bc 1e31 56bc 736f 00bd
000002d0: 0959 a43c b0d0 0d3c 1eb8 993c cdfa c3bc
000002e0: a179 e33c e6e7 7ebc df0d 8c3c 065b b93c
000002f0: 5cdb 83bc 466f 01bc 0c7a f63c 4706 f03c
00000300: 8da3 993c 4486 85bc c301 953a e971 e8bc
00000310: aed6 4aba 50da 0abd e1e5 153d 1bc5 133c
00000320: 5b03 d9bb ab3d 09bd 8eea 18bd cb9b a63c
00000330: b53b bcbc f7fc ef3b 49ce 09bc 295c 9f3a
00000340: c3f3 aabb e3b9 923c d2c5 6fbc 0642 af3c
00000350: a555 543c 5a65 823c 6192 eb3c d5dc a2bc
00000360: 62f4 4e3c 9518 173c ce66 093d 4ed7 7b3a
00000370: 02ec ce3c 3d8d dfbc 3677 a3ba df79 943a
00000380: a254 e53c b028 cabc e05b 5abb eaa1 f03c
00000390: a7d0 26ba 5455 f03c 2859 063a a1b8 a53b
000003a0: 8bf7 f53a b95c f43c e847 eebc d181 7b3c
000003b0: f349 bf3b f267 15bd efb2 2a3a 14dc 163d
000003c0: a799 c9bc bcbe 61bc 1fc3 e3bc 9fca 6f3b
000003d0: d75b b4ba cdb4 8b3b 4803 69bc c014 a53a
000003e0: 66a5 be3b cf0b 3e3c 58cb 2dbb 06a5 13bd
000003f0: c8cf f1bc 0496 49bc b9ca fd3c c59a bf3c
-0.022347186 0.025895316 0.011763473 -0.03196634 0.01794473 0.0026763608 0.02779606 0.015303009
-0.0045144996 0.016420545 0.051117316 0.0242772 -0.02311741 0.010788191 0.01626791 0.049024813
0.028023075 -0.004799875 0.020670872 -0.001946353 0.0049902652 -0.02374604 -0.03419922 0.016512455
-0.0017150666 0.019383296 -0.03414257 -0.00082052057 0.01679264 0.011230032 0.029843044 0.0050264103
-0.013789489 -0.014320268 -0.014235039 -0.041538347 -0.03958002 0.009120939 0.025988642 -0.006346578
-0.0007189241 -0.024916062 -0.016630316 0.02083456 -0.015813464 0.0050953324 0.029849313 -0.026610969
-8.151555e-05 -0.024431037 0.029697109 -0.018884221 0.042408027 -0.03333817 0.0028766436 0.04934142
-0.0054916656 0.028166937 -0.034019038 0.02072092 -0.018012075 0.006964663 0.005432629 -0.036823593
0.00405398 0.0027560242 0.0032201707 -0.01510487 -0.022168308 0.009777209 -0.0051299655 0.025959909
-0.02316188 -0.015150547 0.019382888 0.012026986 -0.019154027 0.0066240476 -0.008015249 -0.01165425
0.012927248 -0.0031245304 -0.034984462 -0.016054314 -0.03669038 -0.011557691 0.022235634 -0.03688315
-0.030392649 0.018838666 -0.015268459 -0.03108813 0.010012081 -0.017706549 0.02174189 0.0047118524
0.022790886 0.020469766 -0.035711814 0.010000136 -0.011734793 -0.020163141 -0.011604332 -0.022541732
-0.012366839 0.022715397 0.016455462 0.049462095 0.0077807023 -0.021398975 0.027667461 0.023561921
-0.00984465 -0.024174275 -0.0016311796 0.04439341 -0.022305794 0.014205011 -0.021466473 0.026552144
0.006614995 0.030794851 -0.013535437 -0.024725148 -0.008890719 -0.0215135 -0.020025613 0.017418912
0.003938887 0.0049169534 -0.026251609 -0.026267203 -0.004721214 0.01965032 0.00034043402 -0.022813084
-0.024091993 -0.0037563648 -0.0319586 0.0324398 0.023490516 0.02813706 -0.010766817 0.0032872087
-0.034025393 0.031093627 0.0063585653 -0.0039212788 -0.007779641 -0.03361889 -0.02219026 0.00576188
0.031885806 -0.018341431 -0.012638632 0.0023212442 -0.025684359 -0.005998474 0.025202744 0.033215243
-0.009688558 0.0359641 0.03297981 -0.017949615 -0.029115338 0.005294753 0.014339981 0.011519774
-0.00051341177 0.026029747 0.004343328 0.011968867 -0.02088052 0.003989419 -0.030747244 -0.001537764
0.001423196 -0.008306063 -0.013073234 -0.031356286 0.020061987 0.008655712 0.018764552 -0.023923302
0.027767958 -0.015558219 0.017096458 0.022626411 -0.01609581 -0.007900065 0.030087493 0.029299868
0.018754745 -0.016299374 0.0011368323 -0.02837463 -0.0007737678 -0.033899605 0.036596183 0.009019162
-0.0066227145 -0.033506077 -0.037333064 0.02033796 -0.02297769 0.007323857 -0.008410999 0.0012158203
-0.005217047 0.017910903 -0.014634566 0.021393787 0.012959872 0.015917469 0.028756322 -0.019880692
0.012631508 0.009222169 0.033545308 0.0009606973 0.025259022 -0.027289027 -0.0012471441 0.0011327824
0.027994458 -0.024677604 -0.0033318922 0.029374082 -0.0006363489 0.029337563 0.00051249797 0.00505741
0.001876579 0.02982937 -0.029087022 0.015350775 0.005837673 -0.036476083 0.00065116485 0.036830977
-0.0246094 -0.013778385 -0.027803002 0.0036589277 -0.001376028 0.0042634965 -0.014221974 0.0012594685
0.005818057 0.011599495 -0.0026518907 -0.03604605 -0.029518023 -0.012303833 0.030980455 0.02338923

model.4.bias f4 [64]
00000000: c1a1 11bc e0a1 66bd 4ea0 a8bb 3a0d d53c
00000010: d990 c13c 4e75 a1bc 685f 1abd 5a44 8ebc
00000020: c6f9 a1bc 2cda 12bd 9341 9fbb 3364 803c
00000030: 8f73 a1bb b211 8d3b 6bd8 493d 2e6f d83c
00000040: 51ee 14bd 18d3 35bd a443 0dbc 727d 8cbc
00000050: 4301 a8bb 2cca 2cbc f5bc a83c 1ac4 f83b
00000060: d370 87bc bae1 01bd e7ff a43c fad0 c8bc
00000070: 18bf f1bc bd2c 413c 5eab 01bd a010 1f3d
00000080: 18ac 863c d213 3f3d bf7d e5bb 8383 20bc
00000090: 7b45 31bc e0cb a23c 0d2a e1bc 1cf4 473c
000000a0: ac37 d5bc 5788 56bc c06d b6bc 93da ca3c
000000b0: aeb9 51ba 5ff9 2f3c 018e b83a aff5 a53c
000000c0: 84c9 7cbd 14f3 80ba 71ce 60bd 8647 343c
000000d0: 2f0e 123c 021a a53c 5393 1ebd 1543 733c
000000e0: e85b 7fbb 1206 bc3c e130 d3bb 55ca 4b3d
000000f0: 87f3 be3b 0622 88bd 6a77 7a3c adf3 a23c
-0.008888663 -0.05630672 -0.005146063 0.026007283 0.023628639 -0.019709256 -0.037688643 -0.017366577
-0.019772422 -0.035852596 -0.004860112 0.015672779 -0.0049271057 0.004305088 0.049278658 0.026420202
-0.03636009 -0.044390768 -0.008622084 -0.01714966 -0.0051271035 -0.010546248 0.020597914 0.0075917365
-0.016533291 -0.03170941 0.020141555 -0.02451371 -0.029510066 0.011790452 -0.03165757 0.038834214
0.016439483 0.04664976 -0.0070035155 -0.00979698 -0.010819788 0.019872606 -0.027485872 0.012204196
-0.026027523 -0.013094029 -0.02226913 0.024762427 -0.0008000386 0.010740607 0.0014080406 0.020258753
-0.061715618 -0.0009838068 -0.054884378 0.011003381 0.008914514 0.020154003 -0.038714718 0.014847537
-0.0038964693 0.022952113 -0.006445036 0.049753506 0.0058273706 -0.066471145 0.01528726 0.019891584

model.7.weight f4 [64, 1024]
00000000: 0821 783c 4c08 d3bb ed9d 89bc 14db d0bc
00000010: c5e9 b73c 941c 23ba 95be f63c 8936 e4bc
00000020: e19a f33c 2cbe b33c 8e75 bbbc f469 c4bc
00000030: eeda d5bb 8ab7 2cbc 3834 a7bc 08d1 b43c
00000040: 2458 63bb a3ea ac3c e9ea e5bc f0c3 89bb
00000050: 2ee2 c8bc 9131 d6bb e5b8 31bb df7a 89bc
00000060: 2b15 c2bc 0463 11bc ad7a e53c 4635 31bc
00000070: 8438 a7bc d515 bbbc a639 b83b 4d26 d0bc
00000080: 1011 66bc f4f9 f03b f1b3 953c 0c26 7dba
00000090: 921f 84bc 286a 4ebc fc69 cfbb 7684 9fbb
000000a0: bcf3 a23c 3349 d1bb b869 9bba 3e99 273b
000000b0: ab52 513c 6f7e d2bc e38d e1bc 7c72 55bc
000000c0: f3f7 f43c d4f5 d43b afec d8bc b7ff bdbb
000000d0: b809 2fbb b73f fabc 4169 8ebc 9261 e3bc
000000e0: 1c09 2d3c 5b24 ab38 c645 a4bc bc70 bcbc
000000f0: 8a85 563c 1c1a ecb9 00ce a7bc 2985 553c
00000100: a0ca d33c bcb8 cdba 4e12 32bc c6c7 083d
00000110: b413 ca3c 60ce a6bc 5b25 9bbc 19c3 cf3c
00000120: ae61 3c3c 3887 a73c 82be d7b8 b013 8a3b
00000130: 3f93 d43c 17b1 3ebb e51e d7bc 3c26 ad3c
00000140: 92a3 08bc 0875 833c e53a ac3c d059 e33c
00000150: ec3a c83c 4913 ca3b 5c1e a63c b2ee 1abc
00000160: ccd9 bd3c b741 653c 169c c93c b605 ec3b
00000170: 8051 c3bc 74ab ffbb 4842 903c 7059 a0bc
00000180: 8b25 f4bc 7192 efbb 027b c0bb b2f3 01bd
00000190: 5fb3 a2bc 17e7 a2bb 2a88 aebc c7e4 873c
000001a0: 4944 9cbb e539 09bd b7da c33c 8f7c 573c
000001b0: 07d6 9b3c 3614 7f3c 194a afbc 4cf1 413b
000001c0: 3307 403c cc15 e0ba 8fd2 a53c 9546 ddbc
000001d0: 3d4e a1bc 4dd3 d53b 5860 bb3c 227c f7bb
000001e0: 2f1d a73b aa99 843b 4369 6bbc dc0a f2bc
000001f0: eb48 51bc 1c84 8ebb db92 ae3c 9196 423b
00000200: c849 073c 6f3a 113b c294 e0bc 0140 dabc
00000210: 89c0 36bb 7d3e f2bc e20f 08bd 611e e7bc
00000220: 1b7c 91bb cf07 f63b 1fa4 b73c d50e f43c
00000230: 3ee0 b13c 2f02 eb3c 7bb2 d6bc ecf7 413c
00000240: ceae d03c 5b47 05bc 29c6 cfba ec84 bd3b
00000250: 3ffa fdbc 440c c8bc 1e07 7abc b340 1cbc
00000260: 8bb8 7bbb 553d b1bc cf65 893c 7883 993c
00000270: f135 a33c fc7e 95bc 299d 1d39 7bec 013d
00000280: 932a 233c e894 05bd 13d4 9cbb 9c6d 473c
00000290: b5f0 bdbc 4e73 ca3a 68f7 e1bc 3378 a53c
000002a0: f005 093c f5b7 b6bc e103 aabc b415 d0bc
000002b0: b10a b0bc b70a 11bb f2ab 883c bbda fa3c
000002c0: e5c5 ba3c 2729 dc3a 193e cb3c 0f5c 5db9
000002d0: de5a ca3c 5c89 95bc 94ad 983c 1596 b2bb
000002e0: a710 f5bc f8ce b8bc ff9b 68ba 05cc 72bb
000002f0: b1e2 e83c ced4 b4bc d8e0 fc3c 4de7 4ebc
00000300: 8fe8 01bc a4e3 51bc 6934 a8bc 1d45 f0bb
00000310: 8d89 603c 3588 dbbc 92a5 973b faff 35bc
00000320: d70c 03bd 8d6b c0bb 2329 98ba 3f39 ccbb
00000330: 16b4 c73a 3f3a 88bc 33a7 9f3b 26d3 0ebc
00000340: 948c 453c f26f c3bc f191 bb3c 159d eb3c
00000350: 99f2 d5bc ab8a 0dbd d2ed 9f3c c48f eebc
00000360: c558 193c c877 f7bc 5b64 a53a 6807 823b
00000370: 70d3 c03c a266 aabb f9e7 4b3c 9786 a4bc
00000380: c347 7cbb d0c5 41bc d1cb ed3c 0f3d 013d
00000390: 1c55 663c af55 ebbc 4545 01bd 1585 c5ba
000003a0: 3539 a43c 245e aabc 2873 fb3c efff 08bc
000003b0: 2332 d93c b342 973c 2caf 01ba a911 1cbc
000003c0: f362 ddbc 2553 ebbc 4a95 82bc acd5 37bc
000003d0: 0936 ecbc 6680 afbc 3266 263c 0515 df3c
000003e0: 57cb dfbc 5671 a83c ba56 e5bc 5100 b13c
000003f0: 2deb e2bc 4000 cbbc b292 c7bc 8a81 b73c
0.015144594 -0.006440198 -0.016798938 -0.02549509 0.022450337 -0.0006222215 0.030120173 -0.027858036
0.029736938 0.021941267 -0.022883203 -0.023976304 -0.0065263426 -0.010541806 -0.020410642 0.02207233
-0.0034689987 0.021107977 -0.028066115 -0.004204266 -0.024521913 -0.0065366705 -0.0027118262 -0.016782222
-0.023691734 -0.008873705 0.028012598 -0.010815924 -0.020412691 -0.022837559 0.0056221066 -0.025408888
-0.014042154 0.0073540155 0.01827428 -0.00096568535 -0.016128335 -0.012598552 -0.006329773 -0.0048680855
0.019891612 -0.0063869 -0.0011857068 0.0025573517 0.012776057 -0.025695054 -0.027533477 -0.0130277835
0.029903388 0.0064990316 -0.026480047 -0.005798306 -0.0026708674 -0.03054796 -0.017384173 -0.027756486
0.010561254 8.160687e-05 -0.020052802 -0.023002975 0.013093362 -0.0004503288 -0.02048397 0.013032236
0.025853455 -0.0015695314 -0.010868622 0.033393644 0.024667598 -0.02036208 -0.01893871 0.025361584
0.011497898 0.02045022 -0.00010287484 0.0042137727 0.025949119 -0.0029097253 -0.026259849 0.021136396
-0.008339779 0.016047016 0.021024177 0.027752787 0.024442159 0.0061668498 0.020278148 -0.009456323
0.023175143 0.013992718 0.02461056 0.0072028292 -0.023842573 -0.007802421 0.01760973 -0.019573897
-0.029803058 -0.0073111583 -0.0058740387 -0.031726547 -0.019860921 -0.0049713957 -0.021305162 0.016588582
-0.0047688824 -0.03350248 0.023908002 0.013152256 0.019022955 0.0155687835 -0.021397637 0.0029593287
0.011720466 -0.001709634 0.020242004 -0.027011195 -0.019690627 0.006525433 0.022873089 -0.0075526396
0.0050999145 0.0040466385 -0.014368358 -0.029546194 -0.012773733 -0.0043492448 0.02131026 0.0029691795
0.008257337 0.0022160073 -0.027414683 -0.026641848 -0.0027885756 -0.029570812 -0.033218272 -0.028212728
-0.0044398434 0.007508255 0.022417126 0.029792229 0.021713372 0.028687565 -0.026208153 0.011838894
0.025473978 -0.008134688 -0.0015851903 0.005783668 -0.031003116 -0.024419911 -0.015260486 -0.00953691
-0.0038409557 -0.02163569 0.016772179 0.018739447 0.019923182 -0.018249027 0.00015031233 0.031719666
0.009958881 -0.03261271 -0.0047860234 0.012172129 -0.023186067 0.001544574 -0.027583793 0.020198917
0.008363232 -0.022304514 -0.020753803 -0.025400974 -0.021489473 -0.002213163 0.016683552 0.030621877
0.022799442 0.0016796932 0.024809884 -0.00021110497 0.024701532 -0.018253975 0.018637456 -0.00545002
-0.029915167 -0.022559628 -0.0008873343 -0.0037047875 0.028428407 -0.02207413 0.030868933 -0.012628389
-0.007928981 -0.012810621 -0.020532804 -0.0073324577 0.01370467 -0.026798347 0.004627892 -0.011108393
-0.031994667 -0.005872196 -0.0011608939 -0.00623241 0.0015236165 -0.016629336 0.0048722266 -0.008717334
0.012057442 -0.02385709 0.022896739 0.028761426 -0.026116656 -0.034556072 0.019522581 -0.029121287
0.009359543 -0.030208483 0.0012618409 0.003968168 0.023538321 -0.005200223 0.012445443 -0.020083709
-0.0038494922 -0.011826947 0.029027851 0.03155237 0.014058378 -0.02872738 -0.0315602 -0.0015069569
0.02004681 -0.020796843 0.03069456 -0.008361801 0.026513165 0.018464422 -0.0004947062 -0.009525695
-0.027024722 -0.02872617 -0.015940327 -0.011220377 -0.02883436 -0.02142353 0.010156201 0.027231703
-0.02731864 0.020561855 -0.027995456 0.021606596 -0.027700031 -0.024780393 -0.024361942 0.022400636

model.7.bias f4 [64]
00000000: b364 74bc 5591 b0bc d3b8 0ebd 8fd5 9d3c
00000010: f065 8fbc 7e0a 8bbc b550 83bc 20f3 23ba
00000020: 8988 47bc d849 13bc 2c07 343d 454e c4bc
00000030: 0b63 0b3b bdd8 1ebd 369f 21bd 6fd5 bb3b
00000040: bac5 403d 63d1 02bd b1f2 943b ac80 8fbc
00000050: c000 3dbc 745b a23c 5202 1cbd a5fb efbc
00000060: ddf7 1f3c e5b7 a13c 993c 163d 5120 8f3b
00000070: 771c a33c 0ece f13c cc2d 563b 1f15 9f3c
00000080: 0750 16bc f0ad e1ba a8e6 443c fc4d 453c
00000090: 1687 9e3c 6c4e aabc a83f 023c 99db bf3c
000000a0: 9f40 d33b 2c07 3abc feee a03c d158 9b3c
000000b0: add6 0fbd 84fa 863c 0714 093d 3b3b 4cbc
000000c0: 90c1 26bc 34aa d7bc ffb9 5ebd 5438 a8bc
000000d0: d946 5dbb cfcc 533d 8e9e 59bc 01c7 1ebd
000000e0: 60a1 47bd 23fc 07bc 0c73 c1ba dd20 c2bc
000000f0: 6800 ea3c e071 dc3c 9d49 af3a e142 c8bb
-0.014916587 -0.021553675 -0.03484423 0.019266872 -0.017504662 -0.016972777 -0.016029695 -0.0006254185
-0.012178549 -0.008989774 0.043952152 -0.023963103 0.002126875 -0.038780916 -0.039458476 0.0057322304
0.047063567 -0.031937968 0.0045455326 -0.01751741 -0.011535823 0.019818999 -0.03808815 -0.029294798
0.009763685 0.019741008 0.036678884 0.004367866 0.019911034 0.0295172 0.0032681106 0.019419251
-0.009174353 -0.0017217975 0.012017883 0.012042519 0.019351523 -0.020789348 0.007949747 0.023420142
0.0064469124 -0.011354249 0.01964521 0.01896325 -0.03511684 0.016476877 0.033466365 -0.0124652935
-0.010177985 -0.026326276 -0.0543766 -0.020534672 -0.0033764152 0.051708993 -0.013282431 -0.038764004
-0.048737884 -0.00829986 -0.0014759018 -0.023697311 0.028564647 0.026909769 0.0013373379 -0.006111488

model.8.weight f4 [10, 64]
00000000: 8c1a 7f3c 77a7 34bd d7da a43d c1e0 87bd
00000010: f101 a03d e508 babd 34d6 e93d ac52 df3d
00000020: 1175 cfbd e327 cd3d 9a5a 05be 3845 063e
00000030: 2a41 903d 0edc 9b3c 969f 223c ce4d d73d
00000040: 53c1 08be 461f 4b3d b82f ffbd 9b66 273d
00000050: c801 c23d cf17 95bd 906d b0bd fcc1 c73c
00000060: 5ba8 7b3d 0941 c3bd 8363 9cbd fe6d 0abe
00000070: a671 1bbd 2afb 0cbe 1056 c4bb 2ba0 07be
00000080: 3893 babd f19e 0f3d 9c38 8bbc 138c 93bd
00000090: 4158 0c3d 6da2 04be af47 f13d fd49 07be
000000a0: b7de a6bd b660 d9bd f2f0 abbd 2bc9 c2bd
000000b0: 5db5 8b3d ff90 973c 7531 0abe 3e56 15be
000000c0: cd2b 383d f314 6e3b a35c 313d ecb1 1fbd
000000d0: ae59 a53d d878 e9bd d5c1 fdbd e936 063e
000000e0: fa4e 913d f9f3 da3d 82b3 a43d ea36 bebd
000000f0: 7591 afbd 8a5a 993d 79bd f1bd 7aa7 f8bc
00000100: 6fed bcbd e722 80bd f79e 3e3e 9429 9fbc
00000110: 53cf 203e c793 0ebd bcf3 943d e532 05be
00000120: b2c5 a2bd 12c0 a0bd 3e3d 173e 03ab d93d
00000130: 5f5c f1bd 9a96 63bc c27d 2a3e bf25 87bd
00000140: 0922 243e c460 3abc ec53 10be 2f0c f83d
00000150: 148f 0fbe 8ad1 1e3d 9a38 993b 200e 423e
00000160: 7e57 1b3e f609 6f3a 9de8 cd3d 956f f93d
00000170: fcc6 babd 1c71 d13d 8ad1 e13a 3d6c ebbd
00000180: 9e7d 05ba c8ed 25be a6bb a03d 97e9 d8bc
00000190: 906b 15be 1cbb 0d3e 4486 bbbc d73b 2d3e
000001a0: 801c 30bd 25e1 053d f45d a0bd cba8 e8bd
000001b0: 92ce a7bd c071 df3c ebd7 163e 1fe9 05be
000001c0: fad7 fbbc 0391 a23d 8441 bebd 3a59 cb3c
000001d0: 68b6 0abe 1478 d23d 3401 63bd e589 5fbd
000001e0: f0b4 353e e652 f43d 64f8 b63c cac5 0c3c
000001f0: a374 253e 7439 b5bd 7ba5 7abc 70a5 cbbd
00000200: e584 993d 8d83 ecbd e0e1 0b3d 93af 68bc
00000210: b075 13be 33b8 783d 361b 92bc c0c4 a0bd
00000220: 327a 91bd 30c4 05be 9226 0abd 671a ecbd
00000230: 1142 a9bd fd89 babd fc29 0a3d d261 a5bd
00000240: 5602 52bd 119a 06be a012 03bd 74ae aa3d
00000250: de02 0dbe 9415 d33d 6064 96bb 163c 44be
00000260: 557a 0a3e 02d0 613d c96e 073e 7963 9fbd
00000270: 89b1 0a3e fe76 29be 9d8a c6bd 28e7 9c3d
00000280: 6713 1fbe 9300 20bd b24e cebb 0d58 84bd
00000290: 87e2 0a3c 1eff d9bd 9902 20ba 0901 1abe
000002a0: ca58 14bd f54a 7cbc 42ea d53d 7707 80bd
000002b0: fcea 18be 4c83 b23c b6df d5bd 38e9 f4ba
000002c0: 35a4 193e 49bf 27be 80f1 b137 cf16 d2bb
000002d0: eb33 173d e52a c4bc 635f 0ebe a634 25bb
000002e0: 97b7 14be 63ea 0abd aba1 903d 5586 3ebe
000002f0: b0bf 233d b86e 033e 72cd e3bc 1d91 f03d
00000300: 3a65 453c ae7d d4bc 9cc9 fdbb 7de0 fd3c
00000310: 793b 1cbe 2dbc 7cbd 487e 96bc 1219 033d
00000320: 8c06 733d 1beb c73c aa59 0a3e c722 d03d
00000330: b2df 3bbd 872a 45bd b819 d43d dfdf 083e
00000340: 7454 f8bd b09b 0abe b57c 54bd 7199 38bc
00000350: a5f8 bfbd 1e01 ab3d 3f72 10be 2483 29be
00000360: 9833 393d 63e1 38bc 3076 f53d c918 153d
00000370: c868 9e3d 4ae9 c8bd 11e9 0fbe be29 b6bd
00000380: e9cc 1b3e b156 69bd b352 8bbd e517 ea3d
00000390: 74fb 3f3d 7954 7b3d b27a 3abc 7d6d 8fbd
000003a0: b82c e83c 0ebb 59bd 7cf6 d2bc fcda 82bd
000003b0: 7510 5c3d b7be 8e3c 3f08 023e 947a 643c
000003c0: 7399 9abc 1b61 043e 4180 773d 1bb4 0cbe
000003d0: 235d 523d fa51 f13d 7987 043e 5629 60bd
000003e0: cbae b3bc e750 2ebe 3086 f5bd 9ee5 c5bd
000003f0: c7b7 a7bd f701 ccbc 0405 b83d de3c c0bd
0.015570294 -0.04410502 0.08049553 -0.06634665 0.0781287 -0.09083728 0.11417809 0.1090444
-0.101297505 0.100173734 -0.13022843 0.13112342 0.07043679 0.019025829 0.009925744 0.10512887
-0.13354997 0.04959037 -0.124602735 0.040869337 0.09472996 -0.07279932 -0.086146474 0.024384491
0.061439853 -0.09533889 -0.07636168 -0.13518521 -0.03795018 -0.13767686 -0.0059917048 -0.13244693
-0.09110111 0.035063688 -0.016994767 -0.072044514 0.034263853 -0.12952586 0.11781251 -0.13211818
-0.08147948 -0.10614149 -0.08395566 -0.09511026 0.06821702 0.018501757 -0.13495429 -0.1458368
0.044963647 0.0036328405 0.043301236 -0.03898804 0.08073746 -0.11400002 -0.12390486 0.13106884
0.07095142 0.10691065 0.08042051 -0.09287818 -0.085726656 0.07487972 -0.11803717 -0.030353297
-0.09224974 -0.06256657 0.18615328 -0.019429006 0.15704088 -0.0348089 0.07273051 -0.13007696
-0.07947864 -0.078491345 0.14769456 0.10628321 -0.117851965 -0.013890887 0.16649535 -0.06598996
0.16028608 -0.01137561 -0.14094514 0.12111699 -0.14019424 0.03877405 0.004675937 0.18950701
0.15170094 0.0009118611 0.10054133 0.12179486 -0.091199845 0.10226652 0.0017228585 -0.11495254
-0.0005092266 -0.16203988 0.07848291 -0.026478572 -0.14591813 0.13840908 -0.022891171 0.16917358
-0.04299593 0.032685418 -0.0783042 -0.1136032 -0.08193697 0.02727592 0.14730804 -0.1307721
-0.030742634 0.07937815 -0.0928984 0.02482282 -0.13546145 0.10276809 -0.05542107 -0.054574866
0.17744803 0.11929874 0.022335239 0.008592078 0.16157775 -0.08848849 -0.015298243 -0.09943664
0.07496051 -0.11548529 0.034150958 -0.014202016 -0.14400363 0.06072254 -0.01783524 -0.07850027
-0.07103385 -0.13063121 -0.03372819 -0.11528473 -0.08264554 -0.091083504 0.033731446 -0.08075298
-0.05127176 -0.13144709 -0.032000184 0.083340555 -0.13770625 0.1030685 -0.0045896024 -0.19163546
0.13523228 0.055130012 0.13225855 -0.07782645 0.13544287 -0.16549298 -0.09694407 0.07661277
-0.15534745 -0.039063048 -0.0062960023 -0.06462107 0.00847686 -0.10644363 -0.00061039027 -0.15039457
-0.03621749 -0.0153987305 0.10445072 -0.06251424 -0.1493339 0.021791123 -0.1044306 -0.0018685227
0.15004046 -0.16381563 2.1212501e-05 -0.0064114104 0.036914747 -0.023946235 -0.13903575 -0.0025208383
-0.14523159 -0.033914935 0.07062086 -0.18605931 0.03997773 0.12835205 -0.027807925 0.11746428
0.01204806 -0.025938835 -0.007744981 0.030990833 -0.15257062 -0.061702896 -0.018370762 0.03200633
0.059332415 0.0244041 0.13510767 0.10162883 -0.04586763 -0.04813626 0.10356468 0.1336665
-0.12125483 -0.13535953 -0.051876742 -0.011267052 -0.09373597 0.083498225 -0.14106081 -0.16553932
0.04521522 -0.011284205 0.11985433 0.03640059 0.07734829 -0.09810121 -0.14053752 -0.088946804
0.15214886 -0.05696744 -0.06802883 0.11430339 0.046870664 0.061359856 -0.011381792 -0.07003305
0.028341636 -0.053156905 -0.025752299 -0.06389424 0.053726632 0.017424924 0.12698458 0.0139452405
-0.018871998 0.12927668 0.060425047 -0.1374058 0.051358353 0.11783214 0.12942304 -0.05472692
-0.021933934 -0.1702305 -0.11988485 -0.09662937 -0.081893496 -0.02490328 0.08985332 -0.093866095

model.8.bias f4 [10]
00000000: ec3b 97bb 7a17 6fbd 18a1 e43d 58e0 25bd
00000010: 3e2c 873d 7dcf 4dbd 945c ff3d 1020 7ebd
00000020: 90d1 06be 5bd9 b93d
-0.0046152975 -0.058372 0.11163539 -0.040497154 0.066002354 -0.050246704 0.1246883 -0.062042296
-0.13165879 0.090746604
