tudui/lixiaoning_1.pth (torch, 585095 bytes, 10 tensors)

model.0.weight f4 [32, 3, 5, 5]
000000 82 19 8b 3b c2 56 ac 3a 6a 9d b0 3d 95 84 8b bd
       0.004244984 0.0013148414 0.08623774 -0.068123974
000010 66 bf ae 3d 22 8c f0 bd a4 94 c4 bc 3c 72 d2 bd
       0.085326 -0.11745478 -0.023996659 -0.10275695
000020 95 6a f2 bd c8 8a 24 3d 13 42 21 3d e9 5f 7b bc
       -0.11836735 0.040171415 0.039369654 -0.015342691
000030 e8 9c cd bc 6f a9 86 bb 8b 4d 01 bc 71 4f 76 bd
       -0.025099233 -0.0041095535 -0.007892023 -0.060134355
000040 a4 41 8c bc 51 04 c4 bd 7b bf a6 3d 98 c2 12 3d
       -0.017121144 -0.09571136 0.08141991 0.03583011
000050 bd 86 bf 3d 78 4f 19 3c 0c 3f 23 bd 6e 99 4e 3d
       0.09351871 0.009357326 -0.039855048 0.05043929
000060 03 77 56 bd 89 e2 2a bd 08 ff 97 bd 85 ef be bd
       -0.052359592 -0.041719947 -0.0742169 -0.093230285
000070 db 50 c1 3d 12 da cc 3b a6 41 98 bd 5c 42 36 3d
       0.0943925 0.006251582 -0.074343964 0.04449688
000080 97 7e 52 bb f9 1d a5 bd d4 64 25 3c 65 09 9d 3d
       -0.003211891 -0.080623575 0.01009484 0.076678075
000090 bd e0 ed bc 12 ce 5f 3d 4b 85 94 bd 76 e7 ca bd
       -0.029037828 0.054639883 -0.07251986 -0.09907429
0000a0 1e ea b6 bd b6 57 8b bd 1d 50 f3 bd 8e 2c b2 bc
       -0.08931373 -0.06803839 -0.11880515 -0.021749761
0000b0 b0 c8 d6 3c 20 ac c8 3d c2 3d 32 3a f3 ac c9 bc
       0.026218742 0.09798455 0.0006799364 -0.024618601
0000c0 3e 24 41 bd 8b 7a 8f bc 2f 11 a8 3c e3 ad 60 bd
       -0.047153704 -0.017514488 0.020516006 -0.05485333
0000d0 50 8e 8e bc dd 62 83 3c 25 9b d5 bc a0 06 83 3d
       -0.017401844 0.016038353 -0.026074955 0.06397748
0000e0 71 be 8f 3d 82 ac 47 3b b3 64 79 bc dc 34 8c bd
       0.07018746 0.0030467813 -0.0152217625 -0.068460196
0000f0 d6 47 5a 3d d9 d7 2d 3d ba 6c 1f 3d 3f c8 9e 3d
       0.053291164 0.042442176 0.03892205 0.07753038
000100 29 7e bf bd 46 1e a6 bd 8d c1 5e bd 48 f2 55 bd
       -0.09350235 -0.08111243 -0.054383803 -0.05223301
000110 d2 2c 99 3b 07 12 af bd 34 f2 93 3d 24 9f ba bb
       0.0046745325 -0.0854836 0.07223931 -0.0056952406
000120 b4 c3 1b bd e0 d6 dc bd 5c 9b 1a bd 2d 77 e9 bd
       -0.038028434 -0.10783172 -0.03774582 -0.11399684
000130 c9 b5 d9 bd 48 54 e5 bd d4 53 a2 bb d3 25 e5 bd
       -0.10630376 -0.11197716 -0.0049538407 -0.11188855
000140 c0 de 14 bc 70 70 d9 3c a3 c7 ae bd 7b b8 be 3d
       -0.009086311 0.026542872 -0.085341714 0.093125306
000150 bd 43 a3 bd ea 0f 95 bc b0 85 cf bd 05 45 34 bd
       -0.079719044 -0.018196065 -0.10132921 -0.044011135
000160 3d 67 09 3d c1 19 fb 3b 70 85 97 bd 13 39 41 3c
       0.03354572 0.007662982 -0.07398498 0.011793393
000170 fb a3 92 b9 5f 7b 67 bd ff 6b 84 3c 0e 45 69 3d
       -0.00027969465 -0.05651414 0.016164778 0.05695062
000180 4e bc a0 bd bb 0e ac bd e5 41 ea 3c cd 80 74 bd
       -0.07848416 -0.08401247 0.028595874 -0.059693146
000190 7e b5 85 3d 46 e2 61 3d 07 bd b7 3d 19 f6 e3 bd
       0.065287575 0.05514743 0.08971601 -0.11130924
0001a0 7e 62 1e 3d fb d7 be bd 4a 08 05 bc 67 7b df bd
       0.03866815 -0.09318539 -0.008119652 -0.10912209
0001b0 ed 03 9e 3d 64 b9 6b bd cd 4c d3 bd 86 58 ab bd
       0.077155925 -0.05754985 -0.10317383 -0.08366494
0001c0 c5 67 bc bd ce 2a 54 bd 4f 7c 53 bd 82 e6 93 bd
       -0.0919948 -0.051798634 -0.05163222 -0.072217
0001d0 9f a4 84 3d 25 07 be bb d0 1c 5b 3d 8e b7 5c bd
       0.064767115 -0.0057991915 0.053494275 -0.05388599
0001e0 1b a4 e8 bd ab 81 9e 3d fe 5c 12 bd 18 0c 50 bd
       -0.11359426 0.07739576 -0.035733216 -0.050792783
0001f0 1d 35 e2 3b 67 12 e7 3d 26 88 d5 3d 4b 10 ba 3b
       0.0069033043 0.11282807 0.10426359 0.005678212
000200 65 94 d9 3d f7 15 08 3e 95 8d 01 bd 5b e2 c4 3c
       0.10624007 0.13289629 -0.031629164 0.024033716
000210 50 7f 8d 3c 2a b2 fd bc ef 37 61 bd b3 3b 77 3c
       0.017272621 -0.030968744 -0.054984983 0.015089917
000220 a1 9b e2 3d 3b f6 7a 3d a2 b8 d6 3c 92 19 c3 bc
       0.1106484 0.06126998 0.026211087 -0.023815904
000230 71 f2 ab 3c c8 2a 76 3d 66 bf 6f 3d 13 9a 9a 3d
       0.020989629 0.060099393 0.05853214 0.075489186
000240 ad 2e 58 bc e5 b8 97 bd bf a0 34 bc 12 fd 96 b8
       -0.013194722 -0.07408313 -0.011024653 -7.1996954e-05
000250 d2 0e 80 3c 9c b5 b5 3c 7e ab ad 3d 49 d7 63 3d
       0.015632067 0.022181325 0.08479975 0.055625234
000260 0a 19 ce 3d a2 e2 b6 3d 0f e2 f5 3c d8 92 d8 3d
       0.100633696 0.089299455 0.03001502 0.10574883
000270 09 0e 21 bc 27 54 e6 3d f9 e9 98 3d 53 cb 9e bd
       -0.009830006 0.112465195 0.07466502 -0.07753625
000280 39 d1 3c bc 4c fd 6f bd a1 65 ef 3c 38 d8 e2 3d
       -0.011524492 -0.058591172 0.029223265 0.11076397
000290 67 29 d1 3c 76 4a 92 3d 29 e5 8e bd 00 98 f3 3c
       0.025532437 0.071431085 -0.069773026 0.029735565
0002a0 fe 6f db bd 57 91 d4 3d 18 48 a5 bd 5e 9f 4f 3d
       -0.1071472 0.10379284 -0.080703914 0.050689094
0002b0 06 69 1f 3d ac 99 82 3d 1e 48 3d 3d ec 5b 9c bd
       0.038918518 0.06376967 0.046211354 -0.0763472
0002c0 1b 59 a1 bd 25 de d0 3c 03 8c d8 bd 93 66 cd 3c
       -0.07878324 0.025496552 -0.1057358 0.025073325
0002d0 a1 da c2 3d 2c 51 a1 bd dc ce cd bd 70 a5 3f 3c
       0.095143564 -0.078768104 -0.10049221 0.011697158
0002e0 37 a5 5d 3c 61 46 ee 3d 3e be 04 3d e7 7b be bd
       0.01352816 0.116345175 0.03240799 -0.09300976
0002f0 1a 24 19 bc 39 8b 89 3d 7a d2 88 bd 8d cd 8f bd
       -0.009346986 0.06716008 -0.0668077 -0.070216276
000300 4e 42 de bc 09 83 53 3d 74 57 cf 3c 49 be 3a bd
       -0.027131226 0.051638637 0.025310256 -0.045591626
000310 fc 4a 3a 3d 18 5c 81 bd 15 45 3b bc f8 3f 8b 3d
       0.045481667 -0.063163936 -0.011430045 0.067993104
000320 78 fc 0c 3d 80 0f d7 bc a9 66 ac 3d 6d c8 2e 3d
       0.03442046 -0.026252508 0.08418018 0.04267161
000330 bc 77 d7 bd ab e2 7e bc 50 08 04 be 04 a3 cc bd
       -0.105208844 -0.015556972 -0.12893796 -0.0999203
000340 52 50 22 3c 35 35 9f 3d 00 c3 54 bd 8c e0 90 3b
       0.009906845 0.0777382 -0.05194378 0.0044212993
000350 26 86 d3 bd d4 23 be bd 34 24 e6 bd a0 3b 9b 3d
       -0.10328321 -0.092841774 -0.11237374 0.07579732
000360 11 08 25 3c 78 cb 1b 3d 13 25 d5 bd 8f b7 c2 bd
       0.010072724 0.03803584 -0.10407462 -0.09507667
000370 01 09 5c 3d ba 60 0d 3d e8 ea 1f 3d f6 b2 9f bd
       0.053719524 0.034516074 0.039042383 -0.07797806
000380 e5 29 34 bd 54 72 ad 3d ce 6c c5 3d 9a 43 79 3c
       -0.043985266 0.08469072 0.096398935 0.015213871
000390 24 92 b1 bd bb 33 cc bd c6 54 e0 3d e7 9f a1 3d
       -0.08670452 -0.09970804 0.10953669 0.07891827
0003a0 51 b9 e0 bd 3b fa e8 3d d5 1d 0f bd f4 22 9d 3d
       -0.10972846 0.11375853 -0.03494056 0.076726824
0003b0 7a 93 05 3d 0a 43 d7 3b 72 10 a2 3a d0 25 99 bd
       0.032611348 0.006569271 0.001236452 -0.07477915
0003c0 ac 0d dd 3d d4 9e 26 3d d1 89 f5 3c 80 88 23 3d
       0.10793623 0.040678814 0.029972943 0.0399251
0003d0 90 b4 e8 3d ad 5e 28 bc 41 bb ad bc 8c 1c 59 bd
       0.113625646 -0.010276479 -0.021207454 -0.05300574
0003e0 a9 4a 01 3e 0b 40 2d bb a6 99 c4 bc bc de 9f 3d
       0.12626137 -0.0026435878 -0.023999047 0.07806155
0003f0 68 de 86 3d e0 6e 3b bd fd ac da bd b4 6f 02 3e
       0.065853894 -0.045760036 -0.10677526 0.12737924

model.0.bias f4 [32]
000000 a7 10 0f 3d 98 4b b2 3b c7 be 05 3c b1 71 cf 3d
       0.03492799 0.0054411404 0.008163161 0.10129107
000010 0f 5f 9a 3d 6c f1 d5 bc 33 09 34 bd dd c2 81 bd
       0.07537662 -0.026116095 -0.043954086 -0.06335995
000020 26 82 5a bd 51 fe ca b9 1b fd b0 3d 88 bd f9 bd
       -0.053346775 -0.00038717923 0.08642026 -0.12194353
000030 e8 dd 92 3d 72 8e 82 bd 63 2e 50 3d 07 df c9 bb
       0.071712315 -0.063748255 0.050825488 -0.00616062
000040 cc a8 d0 bd 99 96 0b 3e c5 30 a7 bd 5b 81 14 bc
       -0.101884454 0.13631667 -0.08163599 -0.009064044
000050 27 24 94 bd 18 08 0e 3d 66 98 ff bc 31 37 96 3d
       -0.07233458 0.034675688 -0.031200599 0.07334746
000060 a1 e8 f0 3d 63 db 70 bd 10 07 9c 3d d3 2e b7 bd
       0.117631204 -0.058802973 0.076185346 -0.08944478
000070 7c f2 5e bd 93 2a 07 be 80 d1 94 bd 1a 0a b2 bc
       -0.05443047 -0.13199835 -0.072665215 -0.021733332

model.2.weight f4 [32, 32, 5, 5]
000000 50 b9 a5 bc b9 42 26 3d 4d 97 f1 3c 57 2d a0 bc
       -0.020229965 0.040590975 0.029491091 -0.01955287
000010 d5 ec 95 3c e9 70 63 bc d9 cd f2 3c 92 83 12 3c
       0.018301407 -0.0138819 0.029639171 0.008942502
000020 8b 3d d9 bc 51 3c a2 bc 47 40 0e 3c 08 ee 48 bc
       -0.026518604 -0.019804152 0.008682317 -0.012263782
000030 17 9a cf bc 1c 36 4a bc f9 37 a3 bc d2 84 cc bc
       -0.02534203 -0.012342002 -0.01992415 -0.024965677
000040 d2 1f cd 3b 1e 96 d5 bb cd fc af bc bb dd 25 bc
       0.006259897 -0.0065181395 -0.02148285 -0.010123665
000050 5e c2 a7 bb 1b 76 96 3c eb 91 bc 3c b9 a3 27 bc
       -0.005119606 0.018366864 0.023018798 -0.010231906
000060 b9 71 df bc e3 c9 a3 3c 0e 58 8e 39 f1 4a 12 bd
       -0.027275907 0.019993728 0.00027149956 -0.035716
000070 54 92 6c 3c c3 83 20 3b 9b c8 64 3c 1c f5 f2 3c
       0.014439184 0.0024492599 0.013963844 0.029657893
000080 ea ce ff 39 f2 a0 bd 3a 31 c9 b9 bc 61 6d f0 3c
       0.00048791553 0.0014467521 -0.022678943 0.02934903
000090 6b b8 25 bc 4b 5e 04 bc 8d c7 c4 bc 98 f9 c7 3c
       -0.010114769 -0.008079122 -0.024020934 0.024411008
0000a0 3d be 85 3b 29 29 de 3c c2 28 05 bd e6 d6 e9 3c
       0.004081516 0.027119236 -0.032509573 0.028544854
0000b0 67 41 12 bc 54 57 8d 3c 1b 11 d7 bc 93 21 f4 bc
       -0.008926726 0.017253555 -0.026253274 -0.029801166
0000c0 f1 bd a4 3b d3 e1 a7 3a e5 cd 73 bc d0 8c 13 3d
       0.0050275256 0.001280839 -0.014880632 0.03602296
0000d0 15 2e 91 bc c9 b9 bb bc 2a 16 88 3c 24 91 d0 bc
       -0.017722169 -0.022915738 0.016612131 -0.025459833
0000e0 b0 69 62 bc e0 61 00 3d 8e cf 23 3d 17 84 d1 3c
       -0.013819143 0.03134334 0.03999286 0.02557568
0000f0 10 8c 15 3d 2b 4c 2d 3d 3b 46 49 3c e0 ff c5 bc
       0.036510527 0.042308968 0.012284811 -0.024169862
000100 9a f9 fd 3c f4 1d ba 3a 25 a8 d5 bb 50 0f 3f 3c
       0.031002808 0.00141996 -0.0065202885 0.011661366
000110 23 74 54 3c c5 c9 11 3d 31 54 c2 bc 06 2b b8 bc
       0.012967142 0.035592813 -0.023721786 -0.022481453
000120 af 3b e0 3c d5 73 f7 bc da 27 10 3d 47 42 fa 3b
       0.02737221 -0.0302066 0.035194255 0.0076372954
000130 53 49 17 3d 21 4a 25 bc d9 00 c8 3b 7a 5e b9 bc
       0.03693516 -0.0100884745 0.0061036167 -0.022628058
000140 ab 04 0d 3d 9e ba 9d 3c 4d b4 1a 3d 5e c7 8b bc
       0.03442828 0.019254025 0.037769604 -0.01706284
000150 9c 84 4a 3c 90 c8 9d 3c e2 5f 0d 3c e6 00 0b 3d
       0.012360718 0.019260675 0.008628817 0.033936404
000160 e7 ea 08 3d f0 ce 2f 3d 85 2f 1b 3d f4 1a c0 3c
       0.033427145 0.04292196 0.037887115 0.023450352
000170 d2 74 4d bc b0 4d 2b 3c b5 be 25 3d a1 6a f1 3c
       -0.012540059 0.010455534 0.040465076 0.02946979
000180 05 7f 1f 3d 9b 77 15 bc c4 ea 90 3c 5f 22 39 bc
       0.038939495 -0.009122754 0.01769007 -0.011299699
000190 bd 7a 02 bd 98 2d 93 bb d8 d1 de bc ee 7f d6 bc
       -0.031855334 -0.004491519 -0.02719967 -0.026184049
0001a0 e6 4c 01 bd 28 e1 0b 3d 00 f7 d4 bc ab 64 33 bb
       -0.031567477 0.034150273 -0.025996685 -0.0027373235
0001b0 89 ab 9c 3c 98 b2 a9 bc fa da 0f 3c be dd bf 3c
       0.019124763 -0.020715043 0.008780235 0.023421165
0001c0 37 60 d2 39 99 94 ad 3c df 14 0a bd 57 c3 ce 3c
       0.00040126007 0.021189021 -0.03371131 0.02523963
0001d0 e9 ed 0b bd 06 68 a0 3b eb a1 a0 3a 18 31 45 3b
       -0.034162436 0.004895213 0.0012255287 0.0030089077
0001e0 61 96 9a bc 2c 2d 76 bc 29 64 67 bc ee 8d 4f bc
       -0.018870534 -0.015025418 -0.014123001 -0.012668116
0001f0 c5 ab 68 bc 7c d5 52 bc 9f 2a ee b9 c8 68 72 3c
       -0.014201109 -0.012868281 -0.00045426653 0.01479549
000200 f0 69 7c b9 9d 24 d8 3b c0 81 f4 bc f8 8d b5 bb
       -0.00024072058 0.0065961615 -0.029847026 -0.0055406056
000210 5b 73 2a 3c 9b 03 8b 3c 69 43 bd bc 56 56 00 bc
       0.010403479 0.016969493 -0.023103433 -0.007833084
000220 44 48 e3 3c 8f 41 ec 3c 1e e8 f5 bc 5f 64 02 bd
       0.02774442 0.028839855 -0.030017909 -0.031834003
000230 0f fd f7 bb eb 65 f9 bc b5 83 1e bc 57 9b a8 bc
       -0.0075680087 -0.030444106 -0.009674956 -0.020581884
000240 62 00 b7 3c 57 5f 8d bc 16 16 b5 bc 97 84 08 bd
       0.02233905 -0.017257376 -0.022105258 -0.033329573
000250 c3 cf 64 bc 5f e9 16 3c c5 66 85 bc 41 ad ce 3a
       -0.01396555 0.009210913 -0.016284356 0.0015768186
000260 ed 70 a9 bc f0 4a 09 3b 37 ac e9 3c f5 2a 31 bc
       -0.02068373 0.0020949207 0.028524501 -0.010813464
000270 45 95 b7 3c d9 1d 3a bb 19 61 88 3c 1f ce e6 3b
       0.022410044 -0.0028399138 0.016647862 0.0070436145
000280 a6 bf 87 bc a8 27 f2 bb 49 5e c1 3c 8d 5f 39 3a
       -0.016570877 -0.0073899813 0.023604529 0.0007071428
000290 77 f8 03 bd cf 65 79 ba 51 d3 4d 3c fa 5d 2e 3c
       -0.032219376 -0.0009513767 0.012562589 0.010642523
0002a0 0c 6f f4 3b 26 b5 02 3d 19 0e 6a 3c d7 45 31 3b
       0.007459527 0.031911038 0.014285588 0.0027049684
0002b0 f5 e1 ac bc 0a 50 ab 3c 43 3d b0 bc 81 93 b2 3b
       -0.021103838 0.020912189 -0.021513587 0.0054497127
0002c0 e2 c9 5e bc 98 f0 d6 3b aa 6a cb 3c f2 0e 16 3d
       -0.013597937 0.0065594427 0.024831135 0.036635347
0002d0 c1 68 c9 3c 90 87 dc bc 1d a7 ab 3c 6a 86 e6 3c
       0.024586083 -0.02692011 0.02095371 0.028140265
0002e0 7c 32 ef 3c 7d f4 48 bb 76 b3 67 bc 9e d0 a4 3c
       0.029198878 -0.0030663304 -0.014141908 0.020119008
0002f0 7f d4 ed bb 39 40 96 3b 53 a4 32 3c ed ce e6 3c
       -0.0072579975 0.0045852927 0.010903436 0.028174842
000300 c1 c0 c4 bc bf d8 a3 3c ab 5e a9 bc d6 17 e1 3c
       -0.024017693 0.020000814 -0.020675024 0.027477186
000310 de 94 8f 3c 65 33 c4 bb 9b cd a6 3c 45 66 8b 3c
       0.01752704 -0.005987572 0.020361712 0.01701654
000320 9e 1a 05 bd e6 2b 5a 3c 3e b1 85 3c 89 f7 07 bd
       -0.032496087 0.01331613 0.016319867 -0.033195052
000330 e2 54 e7 3c ad b9 58 3b 0a 66 8b 3c a9 9d 98 bb
       0.028238717 0.0033069656 0.01701643 -0.0046574664
000340 5d a5 9d 3c 36 ae b3 bc 5c 9a 2d bb b9 db bb bc
       0.01924389 -0.021933656 -0.002648971 -0.02293192
000350 af 3d 72 bc 78 6d 06 bd 9b ba e2 bc 78 d5 61 3c
       -0.014785214 -0.03281924 -0.027676871 0.013783805
000360 f8 8c 02 bd 47 d2 00 3d 75 89 0f 3c 1f 38 13 3c
       -0.03187272 0.031450536 0.0087608 0.008985548
000370 b8 23 99 bc fd e8 bd 3c f2 df 91 bc 6f 84 f3 3c
       -0.01869379 0.023182387 -0.01780698 0.029726235
000380 62 f1 cb 3b 50 17 1f bc 8b ad 31 3d df 57 e8 3c
       0.0062238434 -0.009710148 0.043378394 0.028362213
000390 bd 5b a4 3b 57 7c 0d 3d f5 2d 31 3d 6b 02 1a 3c
       0.005015819 0.034542408 0.04325672 0.009399991
0003a0 06 5a b5 bc 91 16 08 bc dc 56 18 3d 80 b0 0e 3d
       -0.022137653 -0.0083061615 0.03719221 0.034836292
0003b0 24 02 b1 3b 97 09 9e bc 8c 99 26 bc d8 ab 61 bc
       0.0054018665 -0.019291682 -0.010168444 -0.013773881
0003c0 01 16 a0 bc c4 28 35 bc 8b 1f 18 3d ea 2d 69 3c
       -0.019541742 -0.011057083 0.037139457 0.014232138
0003d0 36 5a b4 3b e4 ec 12 bb 26 6f 47 3b 25 11 3d bc
       0.005503918 -0.002241903 0.003043124 -0.011539732
0003e0 41 17 9d 3c bb 0d 96 bc fe b2 2d 3c 7f b2 d4 bc
       0.019176127 -0.018317094 0.010601757 -0.02596402
0003f0 55 f9 e1 3c 92 f0 b1 3c ac 2e 8e bb 73 37 d4 3c
       0.027584711 0.021721158 -0.00433906 0.025905346

model.2.bias f4 [32]
000000 47 45 14 3c f7 5b 95 3c fc fa d8 3c 80 8d 5a bc
       0.00904972 0.018232329 0.026486866 -0.0133394
000010 5a 21 5e bc 1e 95 df bc 4b fd 0f 3d 67 3e b3 bb
       -0.013557756 -0.027292784 0.03515367 -0.0054700854
000020 da f5 1b bd 2f b9 92 bc 28 08 98 3c 96 a4 87 3c
       -0.03807626 -0.017910568 0.018558577 0.016557973
000030 01 d8 2e 3c 89 e1 05 3d 1f e4 ec bc 0f a1 60 3c
       0.0106716165 0.03268579 -0.02891737 0.013710274
000040 62 df b2 3c 9e ee b8 bc de ce 27 3d 9f 88 46 bc
       0.021835033 -0.022574719 0.04096877 -0.012117534
000050 51 21 1f bd e2 12 b7 bb d5 c4 3a bc 1c 46 36 bd
       -0.038850132 -0.005586968 -0.0113994675 -0.044500455
000060 c4 57 e7 3c ca b6 5b bc e4 ce c7 bc 57 ce 65 3d
       0.028240092 -0.0134102795 -0.024390645 0.056104984
000070 6d 2e 8e bc a2 43 2e 3d 4a 0c 03 3c 48 6c 58 3a
       -0.017356122 0.04254497 0.007998535 0.0008255881

model.4.weight f4 [64, 32, 5, 5]
000000 b8 49 dd bc 79 6f 86 3c 30 39 9e 3b e6 e2 05 bd
       -0.02701269 0.016410576 0.0048285946 -0.03268709
000010 7f 9b ad 3c d2 88 2f bc 72 ed 7a 3c c6 88 6d 3c
       0.02119231 -0.010713773 0.0153154 0.014497941
000020 4c 1c 89 3a be 00 aa 3c bc b0 16 3d 10 9e 7e 3c
       0.0010460704 0.020752307 0.03678964 0.015540615
000030 e3 bd 89 bc 9f 52 9c 3c 48 53 95 3c 15 f5 20 3d
       -0.016814178 0.019082366 0.018228188 0.03929623
000040 93 5c b4 3c a8 ec 24 3a 5b 61 d5 3c 91 82 30 bb
       0.0220168 0.0006291368 0.0260474 -0.0026933292
000050 96 30 1b ba 63 fd ef bc 5c a1 10 bd ff 02 89 3c
       -0.00059200206 -0.029295629 -0.035310134 0.016725061
000060 a6 96 42 bb a5 92 88 3c e1 c4 08 bd 59 21 95 ba
       -0.0029691844 0.016671488 -0.033390883 -0.0011377736
000070 09 66 87 3c 99 0b 2d 3c f1 ec db 3c 6e 62 57 3b
       0.016528146 0.010561847 0.02684638 0.0032865065
000080 41 56 a5 bc 42 ba b2 bc 42 56 97 bc 97 f2 12 bd
       -0.02018273 -0.02181733 -0.018473748 -0.035875883
000090 a5 6d 0e bd fa 88 ab 3b 84 ad a7 3c 65 ad 1c bc
       -0.034772534 0.0052348347 0.02046848 -0.009562825
0000a0 2e 93 4a 3b b5 04 a7 bc 1e 37 9d bc 86 33 8b 3c
       0.003091048 -0.020387987 -0.019191321 0.016992342
0000b0 cf f6 8c bc be 85 1e 3c de b8 0e 3d 52 3e dc bc
       -0.017207531 0.009675441 0.03484427 -0.026885185
0000c0 40 f0 41 bb b1 c9 cd bc 93 88 d1 3c a2 aa df bc
       -0.0029592663 -0.025120588 0.025577819 -0.027303044
0000d0 a1 aa 13 3d c5 96 0b bd a3 d1 ba 3b d5 a7 24 3d
       0.036051396 -0.034079332 0.00570126 0.04019912
0000e0 32 67 68 bc 6b c4 d6 3c b6 5e 01 bd b0 b4 b2 3c
       -0.01418476 0.026216706 -0.031584464 0.021814674
0000f0 db bf eb bc 0e 08 d6 3a 8b ea 1e 3c ff 22 03 bd
       -0.028778007 0.0016329305 0.009699474 -0.032015797
000100 02 ea 30 3b 01 b9 78 bb 84 77 00 3a 41 25 33 bc
       0.0026994948 -0.0037952068 0.0004900622 -0.010934175
000110 22 90 99 bc 16 8b ec 3b bb 1e 10 bc 8f fc bd 3c
       -0.018745486 0.007218729 -0.008796389 0.023191718
000120 25 72 b9 bc 5e 33 59 bc 0a df a1 3c 71 0b 23 3c
       -0.022637436 -0.013256876 0.019759674 0.009951458
000130 7f 5d c5 bc 58 f2 5a 3b 80 12 03 bc a0 5a 12 bc
       -0.024092434 0.0033408608 -0.008000016 -0.0089327395
000140 54 17 06 3c 91 9e dd bb a5 06 0a bd 95 96 48 bc
       0.008184273 -0.0067632874 -0.033697743 -0.012242933
000150 05 82 0d bd 35 f4 9d bc c0 0d 8c 3c b4 c0 10 bd
       -0.034547824 -0.019281486 0.0170964 -0.035340026
000160 c4 07 f7 bc a3 37 8b 3c 48 cc 99 bc 14 01 0f bd
       -0.03015507 0.016994303 -0.018774167 -0.034913138
000170 12 ac 28 3c 7a 8c 97 bc c8 81 91 3c f4 89 0a 3b
       0.010294931 -0.018499602 0.01776208 0.0021139355
000180 b0 cc 9f 3c 17 fe ad 3c d9 e8 07 bd 3e b8 3e 3c
       0.019506782 0.021239324 -0.033181045 0.011640606
000190 af f7 8c bc ff 43 ea bc 16 c9 a8 bc d2 35 fb bc
       -0.017207948 -0.028596876 -0.020603698 -0.030665312
0001a0 6c c5 5d bc e6 23 d8 3c 5d 7e 1b 3c 09 57 13 3d
       -0.013535839 0.026384305 0.009490577 0.035971675
0001b0 bf f0 4a bb 7c 03 cf bc 99 61 d0 3c 17 24 67 3c
       -0.003096625 -0.025270216 0.025437163 0.014107726
0001c0 d5 0e 87 bc 54 43 be bc 4b e2 ad ba ae 6c 14 3d
       -0.016486565 -0.023225464 -0.0013266293 0.036236458
0001d0 5f 78 e6 bc 0a f1 92 3c 28 80 55 bc 31 43 d0 3c
       -0.02813357 0.017937202 -0.013031043 0.025422664
0001e0 00 03 d6 3b 30 b0 00 3d 65 bd ed bb 65 6a 76 bc
       0.0065311193 0.031418025 -0.0072552436 -0.015040015
0001f0 35 a3 04 bc c6 7b b7 bc 3e 42 ba bc a1 d5 6d 3c
       -0.008095552 -0.022397887 -0.022736665 0.014516265
000200 22 de 44 3a 6a d0 9b 3b 25 1e d2 bc 03 fa fe bc
       0.0007509907 0.0047550695 -0.02564914 -0.031125074
000210 00 5b 05 bc af 67 8f 3c 12 4f 42 b9 f2 91 de bc
       -0.008139372 0.017505495 -0.00018530738 -0.027169202
000220 a3 c2 0d bd df 32 08 bc 21 f3 03 bd 12 07 01 3d
       -0.03460945 -0.00831291 -0.032214288 0.031500883
000230 72 44 93 3c 48 85 9d 3c 6a 57 68 bc ed 26 95 3b
       0.017976973 0.019228593 -0.014180997 0.0045517595
000240 b2 89 0e bd ee c1 e5 3c c3 7c 16 3a 61 6c ba bb
       -0.034799285 0.028046574 0.0005740637 -0.0056891893
000250 1e 63 a4 bb d5 dd 03 bd 96 c0 c7 bc 30 96 d6 3a
       -0.0050166985 -0.032193977 -0.024383824 0.0016371664
000260 6f ab ce 3c b5 e0 c5 bc a0 0c 56 bc 7c e8 70 3b
       0.02522823 -0.024155 -0.0130645335 0.0036759665
000270 74 75 ff bc cf be 6d bc 45 b8 a2 3c b2 08 06 3d
       -0.031183936 -0.014510824 0.019863257 0.032723136
000280 b8 aa 72 bc 04 aa fa 3c 0a 54 03 3d 63 f0 67 bc
       -0.01481121 0.030598648 0.032062568 -0.014156434
000290 83 04 e0 bc 86 5c 1f ba 19 28 55 3c eb 56 8f 3c
       -0.027345901 -0.0006079156 0.013010048 0.0174975
0002a0 99 26 ce 3b b1 35 d7 3c 73 5f a1 3b 6c 39 6b 3c
       0.0062912223 0.02627072 0.0049247085 0.014356952
0002b0 9f 77 73 bc 7d 1e 27 3c 2a 27 f8 bc 47 3f 81 bb
       -0.014860063 0.01020014 -0.030292112 -0.003944311
0002c0 6f 10 99 bb 41 5b 5c bc 03 8f 52 bc b1 7b fb bc
       -0.0046711485 -0.013449491 -0.012851479 -0.03069863
0002d0 09 19 5d 3c 55 bb df 3a 38 8a 88 3c 9d 82 aa bc
       0.013494738 0.0017069379 0.01666747 -0.020814234
0002e0 83 31 f1 3c f8 4f bb bc 1f 4a 68 3c 37 5a db 3c
       0.029442554 -0.02286528 0.014177828 0.026776416
0002f0 08 58 4c bc d4 fd 0a bc 1d c4 d5 3c 55 d6 ed 3c
       -0.01247216 -0.008483369 0.02609449 0.029032866
000300 9d a0 b6 3c 3f 8b 6f bc 5c 67 c3 b9 a2 3a 00 bd
       0.022293383 -0.014620601 -0.00037270307 -0.031305917
000310 6d 17 08 bb 2c 00 0d bd e9 1b 10 3d cc 8f fb 3b
       -0.0020765916 -0.034423992 0.035182867 0.007677054
000320 b4 7a 2a bc c5 b2 07 bd a1 a3 08 bd 21 d7 c6 3c
       -0.010405231 -0.033129472 -0.033359174 0.024272503
000330 f3 d4 b8 bc 8f 7f ae 3b ae de 11 bc b0 60 f8 b9
       -0.02256248 0.0053252648 -0.008903189 -0.00047374284
000340 7b 3c 2b bc 19 e0 5b 3c 0e ff 2d bc 7b 68 a6 3c
       -0.010451431 0.013420128 -0.010619892 0.020313492
000350 cb c3 03 3c 7f 6e 23 3c 1e 70 d1 3c b8 ef a5 bc
       0.008042286 0.009975075 0.025566157 -0.020255908
000360 56 c5 fd 3b ad bf 30 3b 6b 8f ed 3c 15 c6 0f 39
       0.0077444715 0.0026969716 0.028999051 0.00013711334
000370 1e 4b af 3c 82 d5 00 bd 7b 6a 69 bb a9 1b 7d 3a
       0.021398123 -0.031453617 -0.0035616446 0.0009655306
000380 9d da eb 3c fa 0e ec bc 45 e8 1a bc 17 a4 d4 3c
       0.028790766 -0.028815735 -0.009454791 0.02595715
000390 b0 87 7d b6 10 40 05 3d 3e 01 d6 bb f0 e0 d9 3a
       -3.7778918e-06 0.032531798 -0.00653091 0.0016622823
0003a0 3e b9 99 3b a5 2c 07 3d 27 dd e8 bc f4 d1 d8 3b
       0.004691272 0.03300156 -0.028425766 0.0066168252
0003b0 c3 01 64 3b e6 ad fe bc 2f 62 2b 3b 98 07 0b 3d
       0.003479109 -0.03108878 0.0026151051 0.03394279
0003c0 71 99 f2 bc 10 4a 88 bc ae 78 cd bc 36 c0 96 3b
       -0.029614182 -0.016636878 -0.025081959 0.00460055
0003d0 55 ad b7 bb c9 61 e6 b9 b2 36 9c bc 6c e3 62 3a
       -0.0056053796 -0.00043941874 -0.01906905 0.00086551043
0003e0 3a 58 0c 3c 63 2e 59 3c 82 ef 2a ba dc a3 fd bc
       0.008565957 0.013255688 -0.0006520675 -0.030961923
0003f0 7e be d2 bc ca d2 31 bc 55 d8 f8 3c ad 7e c9 3c
       -0.0257256 -0.010853479 0.030376593 0.024596537

model.4.bias f4 [64]
000000 ef 3b 99 bb b8 37 2b bd 95 03 90 3a d3 ea 18 3d
       -0.004676334 -0.041801184 0.0010987396 0.03733332
000010 fb 8a fb 3c a0 ff a6 bc a8 01 fb bc 14 1a 1e bc
       0.03070592 -0.020385563 -0.030640438 -0.009649772
000020 03 bd 51 bc 1a ef c4 bc 48 b3 0a 3b 6b fb d7 3c
       -0.012801412 -0.024039794 0.002116399 0.026365003
000030 e3 09 9e 3b f9 cc 8d 3c b6 28 54 3d a5 71 a9 3c
       0.004822956 0.017309653 0.051796637 0.020684073
000040 41 e8 0f bd a3 c0 31 bd 7d 3c d0 bb a8 b6 46 bc
       -0.035133604 -0.043396603 -0.006354867 -0.01212851
000050 a9 62 4c bb 37 69 97 bb 9d 18 9c 3c dc 8a 38 3c
       -0.0031186736 -0.004620697 0.019054705 0.011263575
000060 bf 42 21 bc b6 ba 6b bc c6 9a a3 3c 8a 05 5d bc
       -0.009842574 -0.014387777 0.019971263 -0.01349009
000070 0f 00 f2 bc 0c 98 50 3c 70 42 bc bc aa 2d 1c 3d
       -0.029541044 0.012731563 -0.022980899 0.038129486
000080 26 a5 9b 3c 65 9c 42 3d c0 89 20 bb 6f 9d b3 bb
       0.018999647 0.04751243 -0.0024496168 -0.005481414
000090 27 fa 93 3b 8c cd bd 3c 90 62 c4 bc 19 86 b0 3c
       0.0045159045 0.023169301 -0.02397278 0.021548318
0000a0 a9 9b 04 bc 3d e6 6d bb d3 0a b3 bb 34 1c 02 3d
       -0.008093753 -0.0036300563 -0.005463937 0.031765178
0000b0 11 7a f5 3a b0 c5 26 3c 11 5f 3f 3c 9c 8b ed 3c
       0.0018728395 0.010178968 0.01168038 0.028997235
0000c0 76 ff 39 bd 04 44 ea 3a 8c 29 20 bd d5 87 c1 3c
       -0.045409642 0.0017873053 -0.039102122 0.02362434
0000d0 00 86 63 3c 1e 44 bd 3c da 1b 08 bd 64 ed b0 3c
       0.013886929 0.02310377 -0.033229686 0.021597572
0000e0 95 02 14 3c f5 9c a5 3c 68 f5 14 ba 2d 75 67 3d
       0.009033819 0.020216445 -0.00056823203 0.056508232
0000f0 b4 ce 9e 3c 6c 0d 60 bd 59 97 bd 3c 6d 85 ad 3c
       0.019385673 -0.0547003 0.023143457 0.021181786

model.7.weight f4 [64, 1024]
000000 f7 28 59 3c 9f 7b de bb 2f ef 98 bc b1 24 db bc
       0.013254396 -0.006789639 -0.01866874 -0.026750894
000010 1b 14 c3 3c 66 f8 bb 3a b4 89 e7 3c 4c ce e6 bc
       0.023813298 0.0014340996 0.028263904 -0.028174542
000020 cf 86 fc 3c 5a 71 bf 3c b7 a8 cf bc 1a f9 d2 bc
       0.030826 0.02336948 -0.025349004 -0.025753547
000030 a0 f6 d4 bb 6f d8 62 bc 0d 59 c9 bc 33 26 a0 3c
       -0.0064991266 -0.013845547 -0.024578596 0.019549465
000040 c2 e2 f9 bb 81 2c 9a 3c 0f b2 f8 bc a1 1e fb bb
       -0.0076259086 0.01882005 -0.030358342 -0.0076635634
000050 8a 4e f8 bc de 67 c3 bb 2d a1 77 ba 67 c0 8a bc
       -0.030310888 -0.0059633097 -0.00094463193 -0.016937448
000060 74 39 ca bc 8c e2 3c bc ff 81 ce 3c 20 3e 69 bc
       -0.024685599 -0.011528622 0.025208471 -0.014236003
000070 b4 e9 9f bc 24 e5 ae bc fb f2 be 3b 29 5e c5 bc
       -0.019520618 -0.021349497 0.0058273054 -0.02409275
000080 39 fa 51 bc b1 06 13 3c 62 06 ad 3c d5 01 37 3b
       -0.012816005 0.008973763 0.021121208 0.0027924676
000090 a2 e1 5e bc 52 e1 0a bc 7f 51 9b ba 71 5d 5c ba
       -0.0136036 -0.008476572 -0.0011849849 -0.0008406258
0000a0 06 fc ba 3c ee cf d5 b7 ce c9 79 3b fd ca a7 3b
       0.022825252 -2.5488403e-05 0.003811467 0.0051206336
0000b0 0a a0 3b 3c 18 cc db bc 6a 83 f1 bc 3d 75 6f bc
       0.0114517305 -0.026830718 -0.029481608 -0.014615354
0000c0 39 6f f9 3c 8e 05 fb 3b 16 dc e3 bc 5c 99 57 bb
       0.030448543 0.0076605743 -0.027814906 -0.0032897806
0000d0 9a d3 c6 3a a9 19 c2 bc 22 5a 36 bc 25 84 be bc
       0.0015169263 -0.023693876 -0.011129888 -0.02325637
0000e0 f6 10 6d 3c 52 88 f3 3b 20 e3 81 bc 0a 92 a3 bc
       0.014469376 0.007432022 -0.015855372 -0.019967098
0000f0 f9 db 3c 3c 5f 0a 64 bb 95 3b d6 bc d3 92 01 3c
       0.011527055 -0.003479622 -0.026151458 0.007908541
000100 dc bc c5 3c bd 73 a6 bb f5 c6 85 bc 48 38 f6 3c
       0.024137907 -0.005079715 -0.016330222 0.030056134
000110 9a e4 df 3c d3 d0 88 bc 43 4c a1 bc 1c 37 de 3c
       0.027330685 -0.016701138 -0.019689685 0.027125888
000120 93 3d 87 3c f3 a1 d0 3c e7 c3 06 3b f7 dc 20 3c
       0.016508853 0.025467848 0.0020563544 0.009818307
000130 38 d6 d8 3c 7f 78 9d ba eb 12 b5 bc 20 74 ca 3c
       0.026469335 -0.001201406 -0.022103747 0.024713576
000140 47 fb 22 bc f1 75 7b 3c 29 b8 a6 3c 6a 7b d2 3c
       -0.0099476045 0.015347944 0.020351486 0.025693614
000150 66 32 c8 3c cf b1 06 3c ea e0 a0 3c b9 2f 38 bc
       0.024438094 0.008221104 0.019638497 -0.011241847
000160 ed ac bf 3c a7 88 98 3c 00 f8 e6 3c 40 ef 1c 3c
       0.023397887 0.018619848 0.028194427 0.009578526
000170 f2 88 cf bc 2b 07 d0 bb 6d 35 8e 3c 1f 10 96 bc
       -0.025333855 -0.0063485107 0.01735946 -0.018318234
000180 bb 05 eb bc 90 34 10 bc 90 8f b4 bb 41 14 fe bc
       -0.028689256 -0.008801594 -0.005510278 -0.031015517
000190 62 01 6f bc e3 93 bc 3a bf c8 6a bc c8 04 ab 3c
       -0.014587732 0.0014387335 -0.014330088 0.020876303
0001a0 87 4c 9d ba ca fe 04 bd 74 a5 d3 3c b3 1f 73 3c
       -0.0012000956 -0.03246955 0.02583573 0.014839101
0001b0 09 ab 88 3c 45 0f 4e 3c bd 4d d7 bc b9 2d 97 ba
       0.016683118 0.012576883 -0.026282186 -0.0011534012
0001c0 1c f1 3e 3c f7 e5 28 bb 40 e9 8b 3c 9e d7 ef bc
       0.011654165 -0.0025771835 0.017078996 -0.029277619
0001d0 2c f5 a6 bc 2e 7d f1 3b 59 12 a5 3c 82 f4 cb bb
       -0.020380579 0.007369659 0.02015035 -0.006224216
0001e0 6d 3d 8a 3b 8f 83 9a 3a e2 41 83 bc e0 7d da bc
       0.0042187483 0.0011788475 -0.016022626 -0.02667135
0001f0 34 8d 63 bc b9 69 fe bb 70 fc 8b 3c 68 ec 1b 3b
       -0.013888646 -0.007764068 0.017088145 0.0023792032
000200 5e 00 0c 3c 4d 6b 81 3a 32 67 e2 bc a3 0c e4 bc
       0.008545009 0.0009873897 -0.027637098 -0.027838057
000210 f3 a3 20 bb 67 7a fb bc 23 d6 fd bc d5 9a df bc
       -0.0024511784 -0.030698014 -0.030985897 -0.02729551
000220 9b 18 9d bb 2e 71 8b 3b bf f9 ab 3c 58 e0 ed 3c
       -0.004794193 0.0042554354 0.020993112 0.02903764
000230 1b 22 9b 3c de 82 df 3c 09 93 e8 bc 69 7f 34 3c
       0.018937161 0.027284082 -0.028390424 0.011016705
000240 f6 88 cc 3c 7e 87 22 bc b6 1b 86 ba c7 6d cc 3b
       0.024967652 -0.009919999 -0.0010231647 0.0062386724
000250 6e 50 02 bd 93 fa d5 bc 74 69 8e bc 2c b6 27 bc
       -0.031814985 -0.02612046 -0.017384268 -0.010236304
000260 cb 80 29 ba 48 fd 9f bc 40 33 72 3c 56 b8 a0 3c
       -0.000646603 -0.019529954 0.014782727 0.019619148
000270 dd cf b4 3c 76 45 85 bc 31 e0 94 3a 7f 47 fd 3c
       0.022071773 -0.016268473 0.0011358318 0.030917881
000280 3c c5 0a 3c 8e d6 06 bd af 42 b5 bb ba 8a 2b 3c
       0.008469876 -0.03291946 -0.005531631 0.010470087
000290 3f 15 ab bc b8 33 ad 3b 5f ec c7 bc 04 e9 a1 3c
       -0.020884154 0.0052857064 -0.024404703 0.01976443
0002a0 ff 6b 13 3c 7a 10 c6 bc 0b b7 c3 bc ee ba e0 bc
       0.008997916 -0.024177779 -0.023890993 -0.027432885
0002b0 92 a0 a2 bc c1 0d c5 39 d7 7f a1 3c fb 5e ff 3c
       -0.019851957 0.00037585016 0.01971428 0.03117322
0002c0 80 8b bb 3c 55 eb ba 3b 49 e0 cd 3c b4 4a 7a b9
       0.022893667 0.0057043233 0.025131362 -0.00023869687
0002d0 0a 5a da 3c 34 30 6b bc aa 1a 90 3c 3c 40 f7 bb
       0.026654262 -0.014354754 0.01759084 -0.007545499
0002e0 ed 2e fd bc 95 77 c4 bc f3 9d b7 bb 5e 68 c4 bb
       -0.030906165 -0.023982802 -0.005603546 -0.005993887
0002f0 2b 2f f9 3c c5 26 bc bc 9e dd e7 3c b3 7d 74 bc
       0.030418 -0.022967706 0.028303917 -0.014922547
000300 76 bf 14 bc d9 b0 79 bc a3 dd be bc 3b a1 04 bc
       -0.009078851 -0.015239918 -0.023299044 -0.008095081
000310 0c fc 91 3c 8e 26 c2 bc 5c 6e 20 3c 79 20 b7 bb
       0.01782038 -0.023700025 0.009791937 -0.005588588
000320 2c be e6 bc e8 77 df ba 0e e0 c4 3a ff 91 6f bb
       -0.028166853 -0.0017049285 0.0015020387 -0.0036555526
000330 4c 2f 35 bb 52 61 9e bc d8 f8 eb 3a 15 42 22 bc
       -0.00276466 -0.019333515 0.0018003238 -0.0099034505
000340 22 e3 11 3c ba 0e ef bc b1 84 95 3c fb 8b cd 3c
       0.00890425 -0.029181827 0.018251749 0.025091162
000350 dc 1f dc bc 05 f0 08 bd 10 ee bd 3c ba f6 e4 bc
       -0.02687066 -0.033432025 0.023184806 -0.02794968
000360 9a 07 12 3c 66 20 ef bc b5 d2 b5 3a 35 35 b3 3a
       0.008912945 -0.029190253 0.0013872 0.0013672473
000370 e0 cd b2 3c 70 84 98 bb 74 72 42 3c c8 7a 9f bc
       0.021826684 -0.0046544597 0.011868108 -0.019467726
000380 8f 3f 93 bb ce bc 48 bc 25 e7 d3 3c 10 3c fe 3c
       -0.0044936608 -0.012252046 0.025867054 0.0310345
000390 a5 c2 89 3c 31 f5 ba bc fd 7f f1 bc eb 53 9e 3b
       0.016816447 -0.022821994 -0.029479975 0.004831781
0003a0 08 8e b2 3c 2e c0 a0 bc b3 8a ef 3c 77 e6 d8 bb
       0.021796241 -0.019622888 0.029240942 -0.0066192704
0003b0 3a a8 cb 3c 5f 6b 5b 3c 25 fa ad bb 6f 45 5f bc
       0.02486049 0.0133922985 -0.0053093606 -0.013627394
0003c0 28 78 f3 bc 82 da ec bc 09 07 8b bc 3f 82 42 bc
       -0.02972038 -0.028912786 -0.016971128 -0.011871873
0003d0 91 71 e0 bc 9a 28 c0 bc 28 48 eb 3b f2 de ea 3c
       -0.027397903 -0.02345686 0.0071802326 0.028670762
0003e0 74 ca d3 bc 8c 3e cd 3c 66 4f c6 bc bc 5d c7 3c
       -0.025853373 0.025054239 -0.024207782 0.024336688
0003f0 ab 80 ed bc 95 fa b7 bc 92 a7 ba bc b2 da b7 3c
       -0.028992018 -0.022458354 -0.022784982 0.02244315

model.7.bias f4 [64]
000000 20 6c 83 bc db f8 8a bc b2 4e 00 bd 26 88 5c 3c
       -0.016042769 -0.016964367 -0.03132505 0.013460195
000010 40 0b 05 bc 59 68 9d bc ae ff cb bc 45 be ad 3b
       -0.008120358 -0.019214796 -0.024902191 0.005302223
000020 94 b9 c0 bb 5a b6 13 bc 17 b1 23 3d 5c c4 ab bc
       -0.0058814976 -0.009015644 0.039963808 -0.020967655
000030 30 4f 44 3c 49 98 09 bd aa 2e e3 bc 0a 3d 26 3c
       0.01198177 -0.033592496 -0.027732212 0.010146389
000040 2a ae 29 3d 92 7c 04 bd 0d 6d 67 ba 8b 35 80 bc
       0.04142586 -0.032345362 -0.00088282005 -0.015650531
000050 34 ad 5f bc 13 be a2 3c 5f 32 f5 bc e0 f0 87 bc
       -0.013652135 0.019866025 -0.029931245 -0.01659435
000060 70 a1 19 3c be d4 b8 3c 5f b6 04 3d c1 1c 31 3b
       0.009376869 0.02256238 0.032400485 0.0027025195
000070 73 bf 61 3c 8c c0 c8 3c 15 66 83 ba 01 d5 43 3c
       0.013778555 0.024505876 -0.001002493 0.01195264
000080 5a fb bc b9 ba 13 83 bb d8 8d 27 3c ef 2d 1b 3c
       -0.00036045426 -0.0040001543 0.010226689 0.009471401
000090 c0 96 7e 3c 2f 66 92 bc 75 b1 82 3c f7 17 b8 3c
       0.015538871 -0.01787099 0.015953759 0.022472365
0000a0 9a e9 ad 3b 94 20 33 bc 78 c7 b7 3c 52 85 44 3c
       0.0053073885 -0.01093306 0.022433981 0.011994677
0000b0 39 47 22 bd 8a a3 e0 3c af c9 c6 3c 2e af 7d bc
       -0.039618704 0.027421732 0.024266092 -0.015483661
0000c0 da 01 c7 bc 8b 02 e6 bc a9 26 40 bd 17 f6 dc bc
       -0.024292875 -0.028077384 -0.04691187 -0.026972814
0000d0 a7 f9 3c bc 81 42 12 3d df 06 af bc 66 30 04 bd
       -0.011534131 0.035707954 -0.021365581 -0.03227272
0000e0 97 15 2f bd e4 61 f2 bb 96 11 c0 39 37 4d a6 bc
       -0.0427452 -0.0073969234 0.00036634196 -0.02030049
0000f0 52 f9 00 3d be ed 9d 3c a9 67 f8 3a 45 ca 46 ba
       0.03148777 0.019278403 0.0018951792 -0.0007583241

model.8.weight f4 [10, 64]
000000 1e 6c da 3c 35 8f 0a bd 66 be 86 3d 3e d4 91 bd
       0.026662882 -0.03382798 0.06579284 -0.0712056
000010 44 a5 a1 3d 39 20 84 bd d1 14 e2 3d 72 2d f0 3d
       0.0789285 -0.064514585 0.11039127 0.11727418
000020 ff 62 c4 bd 07 07 be 3d 5c b9 e8 bd 4d b7 01 3e
       -0.095891945 0.09278684 -0.113634795 0.1266758
000030 35 de 97 3d 0c 5b 14 3d bc 78 e6 3c 30 11 e2 3d
       0.074154295 0.03621964 0.028133743 0.110384345
000040 91 c7 f4 bd fc e5 13 3d 2b a3 d4 bd aa 7a 18 3d
       -0.11952127 0.036108002 -0.10382684 0.037226357
000050 61 81 a6 3d 8a ee 61 bd 4d 78 c1 bd d4 a6 8b bc
       0.08130146 -0.05515913 -0.09446774 -0.017047323
000060 89 e9 4f 3d 20 de a0 bd 9c f9 94 bd df ab 00 be
       0.050759826 -0.07854867 -0.07274172 -0.12565564
000070 53 85 f8 bb 58 12 0a be da d4 38 bc 0b 2a db bd
       -0.007584253 -0.1348356 -0.0112812165 -0.107013784
000080 8f a9 9f bd 02 dd 43 3d eb 4d f2 bc 2a 72 36 bd
       -0.077960126 0.04781819 -0.02957817 -0.04454247
000090 bb 63 22 3d 2d 0e e8 bd 55 4a e7 3d 8d 20 07 be
       0.03964589 -0.11330829 0.112934746 -0.13196011
0000a0 fc 79 9f bd dc 80 c6 bd fd b6 99 bd dd dd cb bd
       -0.077869385 -0.09692547 -0.07505605 -0.099544264
0000b0 b1 de a6 3d 40 b0 78 3c f2 27 f0 bd ef 52 02 be
       0.08147944 0.01517874 -0.11726369 -0.12726949
0000c0 56 78 10 3d 07 3b 1f 3d 83 0a 85 3d 56 ad 46 bd
       0.03527101 0.038874652 0.064961456 -0.04850515
0000d0 ad da c2 3d 24 9a bb bd 96 eb bd bd 37 7a ec 3d
       0.09514365 -0.09160259 -0.0927345 0.11546748
0000e0 90 a3 83 3d 59 e2 94 3d 51 07 77 3d e2 dc a2 bd
       0.064276814 0.07269735 0.06030971 -0.07952286
0000f0 a4 c9 e8 bd 7a 4d 97 3d d5 04 cc bd 90 43 93 bc
       -0.11366585 0.07387824 -0.09961859 -0.017976552
000100 d8 a4 86 bd 20 42 3f bd 66 8b 07 3e 04 04 93 3a
       -0.0657441 -0.04669392 0.1323677 0.0011216407
000110 c6 d0 e2 3d a5 02 28 bc 64 b2 42 3d 90 82 e8 bd
       0.110749766 -0.010254537 0.047533408 -0.11353028
000120 7e d6 23 bd d3 4b 8c bd 5d 76 fd 3d 2c 79 ea 3d
       -0.039999478 -0.068504 0.12376092 0.11448893
000130 32 ca da bd c4 29 22 3b 23 3c 06 3e 64 35 78 bd
       -0.10683097 0.0024744133 0.13108878 -0.060597792
000140 5a 5d 0d 3e 8b 50 5e bd 19 7a c7 bd f6 63 ab 3d
       0.13805142 -0.05427603 -0.09740085 0.083686754
000150 a3 85 dc bd a9 10 79 3d b3 ac af 3b 51 f8 ef 3d
       -0.10767677 0.060806904 0.0053611635 0.117172845
000160 3e 04 e1 3d 5f fd 2d 3c a8 98 d9 3d 2a 04 e6 3d
       0.10987137 0.01061949 0.1062482 0.11231263
000170 23 75 2d bd 8c 11 ba 3d 18 fc 5f bc 0c 9a cb bd
       -0.04234804 0.09085378 -0.013670944 -0.099414915
000180 bb c8 14 3c 89 27 00 be 5b 9c 93 3d 3c b6 50 3c
       0.009081061 -0.12515081 0.07207557 0.012738761
000190 53 31 00 be 1f ea e4 3d c2 b8 c1 bc d7 e3 0b 3e
       -0.12518816 0.111774676 -0.02364767 0.13661133
0001a0 ad 56 0e bc 6d 1e df 3b 07 bd 84 bd d5 3b ac bd
       -0.008687657 0.006809047 -0.064813666 -0.084098496
0001b0 d9 10 9a bd e4 0a 7f 3c cf 02 d7 3d 1a c4 a1 bd
       -0.07522745 0.015566561 0.104985826 -0.078987315
0001c0 46 73 db bb 55 ba 7d 3d 55 9b 98 bd 98 62 2a 3c
       -0.0066970913 0.06194528 -0.07451502 0.010399483
0001d0 46 bf fa bd fd 75 ae 3d 0f 87 1a bd 26 ee 4f bd
       -0.12243514 0.08518598 -0.03772646 -0.050764225
0001e0 87 8d e4 3d 0e c9 99 3d cd 26 cd 3b ab 51 c6 3a
       0.11159807 0.07509051 0.006260729 0.001513054
0001f0 d5 4e f2 3d 79 42 a4 bd c2 e9 b8 3b 31 d2 9f bd
       0.11831442 -0.08020491 0.0056431005 -0.07803763
000200 30 84 a0 3d 7b 2a f3 bd da 33 15 3d 27 8b 88 bb
       0.07837713 -0.11873337 0.036426403 -0.004166979
000210 6d ae eb bd ee ef 80 3d 68 ef fd 3b 1b ff a2 bd
       -0.115078785 0.06295763 0.0077494867 -0.07958814
000220 df 5c 98 bd 4b 61 d9 bd a8 aa 95 bc e5 28 c3 bd
       -0.07439589 -0.1061426 -0.018269852 -0.095292844
000230 e4 73 8a bd 30 0e 8f bd ea e9 11 3d aa 64 8b bd
       -0.06760386 -0.06985128 0.03562347 -0.068063095
000240 44 0c 8f bc 62 4f 03 be fb a7 e0 bc f2 a4 c1 3d
       -0.017461903 -0.12823251 -0.02742385 0.09455289
000250 a8 ea d5 bd f2 24 d3 3d 84 af 53 3c c7 53 05 be
       -0.10445148 0.10309781 0.012920264 -0.1302024
000260 89 b1 f0 3d 07 2b 97 3d ab 6f c6 3d dc f0 7f bd
       0.11752612 0.07381254 0.09689268 -0.06248556
000270 8f 1f ed 3d 09 0d fc bd 6f 4d 95 bd 67 9c ba 3d
       0.11578285 -0.12307174 -0.0729016 0.09111863
000280 85 c7 e9 bd 22 bb ac bc 8d 25 a3 3b b0 3a 01 bd
       -0.114150085 -0.021085326 0.0049788416 -0.03155011
000290 24 c4 08 bc 1f 76 b8 bd 8e 62 12 bc 8f fa ed bd
       -0.008347545 -0.09006905 -0.00893463 -0.11620056
0002a0 68 a8 2d bd 09 d6 64 bc f7 d3 da 3d d0 b1 71 bd
       -0.042396933 -0.013967046 0.1068496 -0.059007466
0002b0 83 74 e7 bd 68 d7 d4 3c 8b a7 ba bd 4b ee 72 bc
       -0.1130152 0.02598162 -0.091139875 -0.014827321
0002c0 a9 90 01 3e 6d a7 fb bd 35 7d 46 bb a3 ff 9a 3a
       0.1265284 -0.12287793 -0.0030287032 0.0011825453
0002d0 f7 57 c9 3c 0b 73 3a bc 2c 59 db bd 47 2e 92 bc
       0.024578078 -0.011379967 -0.107103676 -0.017844332
0002e0 ed c2 cf bd f8 46 9b bc 10 ee 56 3d bf 5b 07 be
       -0.10144601 -0.018954739 0.052473128 -0.13218592
0002f0 84 fa 65 3d 6f f4 ec 3d fb 2d 88 bc 48 8c e0 3d
       0.056147113 0.115700595 -0.016623488 0.109642565
000300 5d da c2 3a 91 5d 42 bd 50 b6 03 3c db e0 d8 3c
       0.0014866103 -0.047452513 0.008039072 0.026474407
000310 91 25 13 be 8e 8a b6 bd 56 37 67 ba dc 7a ef 3c
       -0.14369799 -0.08913146 -0.00088201964 0.029233389
000320 e1 05 0d 3d a1 bf 30 3d 05 40 f2 3d ee 26 d4 3d
       0.034429435 0.0431515 0.11828617 0.10358988
000330 9b 21 27 bd 57 ff 57 bd e7 09 aa 3d 37 5c 03 3e
       -0.040803533 -0.052733745 0.0830267 0.12828146
000340 32 5a f7 bd 07 e4 ec bd 82 a5 9c bd 5b 93 e2 bb
       -0.1207775 -0.1156693 -0.076487556 -0.006914539
000350 cf 23 8f bd 41 18 5b 3d b2 c3 07 be 83 bd fe bd
       -0.06989252 0.053489927 -0.13258246 -0.1243849
000360 7c 23 8f 3d b7 33 29 bd d7 07 e1 3d c9 55 ad 3c
       0.0698919 -0.041309085 0.109878235 0.02115907
000370 9a 2b 14 3d d6 c6 db bd 30 ee e9 bd 45 b3 d0 bd
       0.036174394 -0.10731284 -0.11422384 -0.10190443
000380 5c 42 01 3e 60 52 84 bd 2d 07 5f bd bd 3b 9d 3d
       0.1262297 -0.06461024 -0.054450203 0.0767741
000390 ef fd 31 3d e4 ab fd 3c 5e 5e 34 bb a2 b2 95 bd
       0.04345506 0.030965753 -0.0027522068 -0.07309462
0003a0 9e ee 73 3c 13 60 84 bd 55 20 38 bd d9 0e 65 bd
       0.014888434 -0.06463637 -0.04495271 -0.055922363
0003b0 4d 23 41 3d 54 30 9c 3c 5a 15 e5 3d 2a 5e 97 bc
       0.047152806 0.019066013 0.11185713 -0.018477518
0003c0 6a fa ef 3b 62 54 d7 3d 60 06 0e 3d 91 b0 f4 bd
       0.007323553 0.105141416 0.03467405 -0.1194774
0003d0 26 e4 44 3d 7c af e7 3d cf 8e c9 3d 2a 69 04 bd
       0.04806914 0.11312768 0.09841692 -0.032326855
0003e0 12 a1 e4 bb de 1d e8 bd 4b 38 ae bd 29 a2 f6 bd
       -0.006977209 -0.11333822 -0.08506831 -0.12042648
0003f0 99 68 60 bd 64 a7 c4 bb 83 76 90 3d 88 79 e5 bd
       -0.054787252 -0.0060014 0.07053854 -0.11204821

model.8.bias f4 [10]
000000 8d c5 ef 3c 62 2e 6c bd 0a 98 c5 3d e5 d8 48 bd
       0.029269004 -0.05766142 0.0964814 -0.04903497
000010 f9 48 03 3d c7 6c 02 bc 0a 19 c4 3d b5 de 48 bd
       0.032052014 -0.007960505 0.09575088 -0.049040515
000020 9a 8c 15 be b0 8b d0 3d
       -0.14604416 0.10182893
